free-origin/index/rl_index_selection/light_mappo/results/MyEnv/MyEnv/mappo/check/run2/models/critic.pt (torch, 47203 bytes, 15 tensors)

base.feature_norm.weight f4 [28]
00000000: ab21 8c3f 8011 813f f9cf 7f3f 5f22 7d3f
00000010: 228c 7c3f 1bf8 773f a890 773f b0ed 733f
00000020: 2e5e 823f 0b0a 823f 33ed 803f f709 7a3f
00000030: dea9 7d3f 9fdd 703f beb9 843f 40a3 753f
00000040: e456 733f 2768 763f 646e 843f 39b0 843f
00000050: 864c 793f d282 823f e24e 7c3f 9104 7c3f
00000060: 11a3 763f ad81 853f b864 783f 0742 803f
1.0947775 1.0083466 0.99926716 0.9888057 0.98651326 0.96862954 0.967051 0.9528456
1.0184991 1.0159315 1.0072387 0.97671455 0.9908732 0.94088167 1.0369184 0.95952225
0.9505446 0.96252674 1.0346189 1.0366279 0.9738239 1.0196173 0.98557866 0.9844447
0.9634257 1.0430199 0.97028685 1.002015

base.feature_norm.bias f4 [28]
00000000: 338d 28bd 5b92 8d3c 6f37 83bb e4c2 b03c
00000010: 5520 433c a244 4db9 f165 e3bc f970 40bc
00000020: d55a e3bc e89b 99bc 8907 f5bc 4bb5 7e3c
00000030: 4da7 51bd d4cd 73bc 553a 30bc 2768 133d
00000040: 9577 ac3b 18ee 943b ff09 4fbb ca2d 88bc
00000050: 0875 bc3c 1e88 5cbc d5a9 f93c 77bf f73b
00000060: 7913 36bc 5bc4 31bd fe4d e3bc 71a3 6c3c
-0.041150283 0.017281702 -0.004004411 0.021577306 0.011909564 -0.00019575891 -0.02775857 -0.011745685
-0.027753273 -0.0187511 -0.02991082 0.015546153 -0.05118494 -0.014880616 -0.010756095 0.035988
0.0052632787 0.0045449845 -0.0031591651 -0.016623396 0.023005024 -0.013460187 0.03047649 0.007560666
-0.011113041 -0.04340015 -0.02774715 0.014443264

base.mlp.fc1.0.weight f4 [64, 28]
00000000: d0f8 323e c9a5 a43d e233 823d e030 d1bc
00000010: 358e 373e 72e6 083e 2789 3cbe b627 22bd
00000020: 0f69 033d 4d33 c13c ddb3 d8bd 3438 b43e
00000030: cf37 883c 1c53 53be baaa 123e 3c50 5d3e
00000040: 93b1 6ebd 0761 a13e 2cb8 903d a525 b3bd
00000050: ac8c 25be 0c11 a0bc d716 9bbe 1eb0 93bd
00000060: e02f 9d3c d124 763e c89e 17be 9671 023e
00000070: d94a 2e3e c4d9 1d3c d216 b8bb 7c4a c6bd
00000080: 90d9 d43e a675 4c3e b259 c63e 0d70 c63e
00000090: c990 cb3b 93be 67be a771 c8bc 8e7e b0bd
000000a0: d1b6 01be 8044 e93d 7a5b 2f3e 647c d0bd
000000b0: 8f50 3fbe abc3 55be 6e2c e2be 849d bdbd
000000c0: 4750 a5be 4984 99be e54c eebd e77d 8b3e
000000d0: a3c3 403e 0d97 adbd 6ed3 54be 2e82 a5be
000000e0: d4a7 b13d 8800 3b3e 5af3 b73c 887b e2bc
000000f0: c06a 4fbd ae8f 78bc 7e68 d83c 3856 3b3d
00000100: 4a2c 093e b548 eb3d 23b0 20be 26f5 8c3d
00000110: 3a84 b93e 1725 af3e 16b7 e1bd c351 213e
00000120: 1cec c03d 1d88 0dbd 058e 3b3e 9b10 71be
00000130: cf68 453a acc3 13be df4b 08be 2bdf 013e
00000140: 8010 37bd 233a 95bc 99ea 5b3a e5d7 733a
00000150: ede4 aa3e 60a0 25bd 149e 9cbd e1b4 dcbe
00000160: c766 4ebe 0f81 7abd 197c 07be 6693 cc3d
00000170: 2504 65be 0e45 79be 7155 7f3d 8428 433d
00000180: 66e0 44be e485 423e a6a3 e4bd e555 da3d
00000190: 7ece 743d 0b5c 99bd 37ce 6f3e 0c63 743e
000001a0: 5860 183e fd94 0fbe a550 713c 3d81 7e3d
000001b0: 542b 4d3e eca8 4ebc a1f6 8c3c bfc9 d43e
000001c0: c426 c4bd 6d3f 8ebc e4d8 37be 15a2 92bd
000001d0: 5dd9 c4bd 8b8f 2abe 01ea 3f3e 630f f2be
000001e0: 955b 8ebd 6b05 f43d 9017 a23d 720b 2abe
000001f0: cb20 a4be 7037 4bbd a8e5 873d 9415 8e3e
00000200: 2947 ec38 38c0 c5bd 3421 e13c 74f6 95bd
00000210: 0099 56be 28dc 49bb 39a7 98bd 503c 3ebe
00000220: 1764 173e 9d5d a9bd d9c5 fbbd ec98 9e3b
00000230: ab79 db3d f635 a4bd 3a34 b3bd 6d64 bebb
00000240: a7e2 813d 6831 aebd 6c0f b03d 86ca c9bd
00000250: 191b 8b3e 0ac3 a3be 3329 4f3e dec5 a03d
00000260: ba6c 4b3c 7ef7 36be ea7e d5bd c95d 153e
00000270: cf33 75bd 103a a7be 6a0e 6b3d 2445 adbe
00000280: b274 b83e 6e06 70bd fd7c 013e 7273 193e
00000290: b736 debc 7d53 6fbe b931 0e3d baa0 3dbd
000002a0: 5a49 25be 1664 373e dc7c aebd fc04 f03d
000002b0: 56d6 433d 36a4 95bc 9e55 1f3c a144 0dbd
000002c0: b6f1 ae3d 960b 213d 2901 a3bd 4fef 1ebe
000002d0: e140 7f3d c4a6 bdbd d573 d23d 2a1f 98be
000002e0: 6e01 aa3d d655 90bd 020a 763c fd14 8b3d
000002f0: a8fe 8dbe 27f0 55bd 94e4 15bd e4e1 6abe
00000300: 2b7d 2f3e a52f d13d 30dc 6fbe d586 0f3d
00000310: f120 9d3e 6da2 c3bd 6bb7 80bd 064d c63e
00000320: 8d05 f6bd 4aa4 12be f815 c0bd 1b17 2fbd
00000330: 1b11 dc3d a9e2 90be 0aa5 50be 5aa6 02bd
00000340: 12e9 843e 5e4d 1fbe 3974 ccbd b2e6 003e
00000350: aee7 0fbe 8cea 59be 4079 a4be a854 383e
00000360: fae5 533c 6d59 a83d c902 eb3d 7424 4abe
00000370: 9d8d 053e 237a 083f cfa2 c13c 8262 6ebc
00000380: b36b 3ebe 8fad b53e e91c 86bd d333 093e
00000390: c243 023d 766b df3d 8ec2 36be 848a 9b3d
000003a0: b400 cebe b3a9 1dbe 5dc1 c13d 54df 983e
000003b0: 4518 5a3e 32ac 8ebb b586 583d b4d7 42be
000003c0: bc49 33bd 5d09 ae3d 1434 60be e28a 5f3e
000003d0: 2b1e b73d 686f 8cbe 9648 d3be b25e fb3d
000003e0: 1c48 abbe 189b 293e 7fcc fb3a b899 8c3d
000003f0: cdf7 babe 6456 a33e 325b 153e 95d1 c73d
0.17477727 0.080394335 0.06357552 -0.025536 0.17925341 0.13369158 -0.18411694 -0.039588653
0.032082614 0.023584032 -0.10581181 0.3519913 0.016628174 -0.20637172 0.1432294 0.21612638
-0.058274817 0.31519338 0.07066378 -0.087474145 -0.16166943 -0.019539379 -0.30290863 -0.07211326
0.019187868 0.24037482 -0.14806664 0.12738642 0.1702074 0.009634439 -0.005617955 -0.096821755
0.41572237 0.19966754 0.38740307 0.38757363 0.006212328 -0.22631292 -0.024468256 -0.086178884
-0.12667395 0.113900185 0.1712474 -0.10179976 -0.18683074 -0.20875423 -0.44174522 -0.09258559
-0.3228781 -0.29983738 -0.1163576 0.27244493 0.1882463 -0.08476076 -0.20783779 -0.32325882
0.08674589 0.18261921 0.022454906 -0.027646795 -0.050638914 -0.015170975 0.026417013 0.04573652
0.13395801 0.11488477 -0.15692191 0.06882696 0.36233693 0.34207985 -0.11021249 0.15753846
0.09420034 -0.034553636 0.18315895 -0.2354149 0.00075305713 -0.14430112 -0.13310193 0.12682788
-0.04469347 -0.018216198 0.0008389145 0.0009301885 0.33377782 -0.04043615 -0.076473385 -0.4310675
-0.20156394 -0.061158236 -0.13230933 0.099890515 -0.22364862 -0.24342749 0.062337343 0.04764606
-0.19226226 0.18996388 -0.11164026 0.10660914 0.05976724 -0.07488259 0.23418508 0.23865908
0.14880502 -0.14021678 0.0147287 0.06213497 0.2003606 -0.012613516 0.017207446 0.4156017
-0.095777065 -0.017364228 -0.17953831 -0.07159821 -0.09611771 -0.1665632 0.18741609 -0.47277364
-0.06951062 0.11915096 0.079146504 -0.16605929 -0.3205627 -0.049613416 0.066356 0.27750838
0.000112666115 -0.096558034 0.027481653 -0.07322398 -0.20956802 -0.003080139 -0.0745377 -0.18577695
0.14784275 -0.082698084 -0.12293596 0.004840007 0.10716566 -0.08018105 -0.08750196 -0.0058103115
0.06342059 -0.08505517 0.085966915 -0.098530814 0.2716911 -0.3198474 0.2023056 0.0785024
0.012416059 -0.17867848 -0.104245976 0.14586557 -0.05986386 -0.32661486 0.057386793 -0.33841813
0.3602653 -0.05859988 0.12645335 0.14985445 -0.0271257 -0.23371692 0.034715388 -0.04629586
-0.16141263 0.17909274 -0.08519909 0.11719701 0.04781183 -0.018266778 0.009725003 -0.034489278
0.085421965 0.03931769 -0.07959206 -0.15520976 0.062317733 -0.09260324 0.102759995 -0.29711276
0.08301054 -0.07047622 0.0150170345 0.067911126 -0.2773335 -0.05223098 -0.036594942 -0.22937733
0.17137592 0.102141656 -0.23423839 0.035040695 0.30689195 -0.09552465 -0.06284984 0.3873064
-0.120127775 -0.14320484 -0.0937919 -0.042746644 0.1074545 -0.28297928 -0.20375457 -0.031896926
0.2595907 -0.15556857 -0.09983105 0.12588003 -0.14053223 -0.21280879 -0.32123756 0.18001044
0.012933249 0.082201816 0.114751406 -0.19740468 0.13042302 0.53311366 0.023637203 -0.014549853
-0.18595771 0.35483977 -0.06548483 0.13398676 0.0318029 0.109091684 -0.17847654 0.07594779
-0.4023491 -0.15396766 0.09460709 0.29857886 0.2129832 -0.0043540234 0.05286284 -0.19027597
-0.04377149 0.0849788 -0.21894866 0.21830323 0.08941301 -0.27428746 -0.41266316 0.12273921
-0.33453453 0.1656307 0.0019210725 0.06865257 -0.36517182 0.31901848 0.1458557 0.097567715

base.mlp.fc1.0.bias f4 [64]
00000000: 9278 55bd 6885 d3bb 1628 36bd 2a59 123d
00000010: ce28 adbc 3694 063d 2b8e 03bd 4c9f 2c3d
00000020: 2a0d d03c a5e9 923d 69a7 b4bb 4343 b6bc
00000030: 0989 05bd a7ce 12bd ebaa 04bd 36bc 12bd
00000040: 039d 08bc ebd6 4b3d 8e7c 173d 7fac aebc
00000050: 7455 533c 5b0a 06bc 8f4e 823d efa4 653c
00000060: 0af4 c7bc 95f8 b43c af48 a73c 7df1 29bd
00000070: 3cb5 ca3d 8bfa 4abc 8b7a bcbc 7c74 11bd
00000080: d253 fbbc 36b9 a53c 4607 0bbd c58e bc3d
00000090: 1f82 953c 3a8e d8bc df52 02b6 807e 043d
000000a0: 3cc4 0d3c 274b 203d d552 5c3c 58c2 333d
000000b0: daab 883d 67eb d03c 658e 833d 9568 ee3c
000000c0: fbc0 fdbc 6a99 d4bc 73c2 2c3d 9db7 3f3c
000000d0: 0348 a1bc c15d 0b3d 5031 8bbc 3964 953c
000000e0: ce3b dd3c 3fc3 f7bc 7d5f ce3c 3b4c b5bc
000000f0: 3ee7 10bd 3a11 a03c 561c 243d cadd fb3c
-0.052116938 -0.0064551122 -0.044471823 0.035729565 -0.021137621 0.03285619 -0.032118004 0.042144105
0.025396902 0.071734704 -0.005513121 -0.02224887 -0.03260139 -0.03584161 -0.032389563 -0.035824023
-0.008338216 0.04976551 0.03698402 -0.021322487 0.012898792 -0.00818118 0.0636264 0.014016374
-0.02440836 0.02209119 0.0204204 -0.041490067 0.09897849 -0.012388836 -0.023007652 -0.03551148
-0.030679617 0.020229917 -0.033942483 0.092069186 0.018250523 -0.026435006 -1.9419747e-06 0.032347202
0.008652743 0.03913417 0.013447483 0.043886513 0.06673403 0.025502874 0.06423644 0.029102603
-0.03097581 -0.02595206 0.04217763 0.011701492 -0.019687658 0.034024958 -0.016991287 0.018236266
0.027006056 -0.030244468 0.025192017 -0.022131076 -0.03537678 0.019539464 0.040066086 0.030745406

base.mlp.fc1.2.weight f4 [64]
00000000: ce4b 833f cc42 813f 17c8 883f dfcf 823f
00000010: b8cd 733f 827e 823f db03 823f 0f49 823f
00000020: 8e25 7b3f 1356 853f 66fd 7b3f 3a5d 813f
00000030: ad87 833f 1972 843f d38d 823f b689 833f
00000040: 7d21 7b3f 9cda 823f d2c1 833f 7471 813f
00000050: d632 823f 3061 7e3f 07d4 863f 7f51 7d3f
00000060: 968c 803f be53 753f c3b6 743f e594 863f
00000070: 199d 853f 5623 823f 1947 883f ed0c 803f
00000080: 21f0 773f d1ec 7b3f 37ce 843f b46a 863f
00000090: f66e 783f a43f 7d3f ef2e 793f 1d53 7b3f
000000a0: 9217 793f 0915 833f 18b4 753f 40ae 843f
000000b0: fba7 7e3f 9c83 7f3f 36dc 803f 7270 7c3f
000000c0: b5af 763f 7a7c 843f 8aad 833f 3006 733f
000000d0: 8756 743f 3ab5 833f 62f5 7c3f 1e4a 783f
000000e0: 0658 7a3f 8ba3 773f f13c 7a3f b019 7c3f
000000f0: 85b3 813f 78dc 803f c2fd 843f 37d0 763f
1.0257509 1.009851 1.0686063 1.0219687 0.95235777 1.0194857 1.0157427 1.0178546
0.9810418 1.0416893 0.9843353 1.0106575 1.027578 1.034732 1.0199531 1.0276401
0.98097974 1.0222964 1.0293524 1.0112748 1.0171764 0.99367046 1.0533456 0.9895248
1.0042903 0.95830905 0.9559137 1.0514189 1.0438567 1.0167034 1.0646697 1.0003945
0.9685078 0.9840823 1.0375432 1.0501313 0.9704431 0.9892523 0.9733724 0.98173696
0.9730159 1.0240794 0.95977926 1.0365677 0.9947507 0.99810195 1.0067203 0.9860908
0.9636186 1.0350487 1.0287335 0.94931316 0.9544453 1.0289681 0.98811924 0.96988094
0.97790563 0.9673392 0.9774924 0.98476696 1.013291 1.0067282 1.0389941 0.9641146

base.mlp.fc1.2.bias f4 [64]
00000000: 8871 43bd a503 9dbb 194f a4bd 13e9 d93c
00000010: 5d51 a2bc c13a e53c 096a 00bd beb1 233d
00000020: 7023 cb3c 313d 5c3d c6a1 a4bb b768 c6bc
00000030: 0067 24bd 6fd7 1dbd e8ad 2dbd c23a 3fbd
00000040: cf30 e43b 0125 0c3d 99e7 ee3c 56c5 87bc
00000050: 689e 4c3c 30b9 ceba 6952 053d 544d 843c
00000060: 4e5f cabd aa7e ab3c 2064 a23c 3d68 84bd
00000070: ec41 b13d 11b1 85bc 161a 03bd 4705 84bd
00000080: 3f41 c4bc ea20 763c 2019 3bbd 56d9 8d3d
00000090: b244 923c a4a1 c5bc 3ad4 8b3c 76db ef3c
000000a0: ca9d 4c3c 893e 083d d20b a23c 6418 adbc
000000b0: b1d9 d23d acdc a23c 3cc8 813d d525 a53c
000000c0: cb0c f8bc b924 cdbc 9b98 153d 813a 983c
000000d0: e1ae adbc 31fc cd3b 5dc8 dfbc 5bbd 8c3c
000000e0: d9bb bc3c f0ec 0ebd f57c c43c 261b 18bd
000000f0: 7aed 08bd 3999 713c 0b26 9d3c e21e 093d
-0.047715694 -0.004791694 -0.08022899 0.026600396 -0.019814188 0.027982118 -0.031351123 0.03996443
0.024797171 0.053769294 -0.0050241677 -0.024219854 -0.04013729 -0.03853553 -0.042402178 -0.046686895
0.0069638263 0.034214977 0.029163169 -0.01657359 0.012488939 -0.0015771743 0.032549296 0.016150154
-0.09881459 0.020934422 0.019823134 -0.064651944 0.08655152 -0.016319783 -0.0320073 -0.06446319
-0.023956893 0.015022496 -0.045678258 0.06926219 0.017855022 -0.024124928 0.017068971 0.029279452
0.012488792 0.033262763 0.019781027 -0.021129794 0.102954276 0.019880615 0.0633702 0.020159641
-0.030279538 -0.025041925 0.03652249 0.018582584 -0.021201553 0.006286167 -0.02731722 0.017180135
0.023038791 -0.03489393 0.023985365 -0.037135266 -0.0334296 0.014746004 0.01918318 0.033476718

base.mlp.fc_h.0.weight f4 [64, 64]
00000000: e94d 033d 1c18 003c f144 863d 94ed d43e
00000010: 3a5a 843d 5305 c3be 78a9 e93d 7c3e b33d
00000020: f2d0 543d 7542 9d3d 0ad0 013e 7e32 5cbe
00000030: 4357 8a3d 4ae5 583e 29a2 903e 7589 a9be
00000040: 054d 5abe b674 a93c e120 75bd 618b a23d
00000050: 68ea 52bd 563b 863e 6ab3 a1bd 9590 e3be
00000060: e6b4 533e f013 8ebe bb51 1d3e 23ea 68be
00000070: 89d2 bc3e 0587 e33c 4c9d 2dbe 9b1c 9fbd
00000080: 5bc8 cdbd be11 dfbd 8a8e 8f3e 7f56 dbbd
00000090: 9803 833d c892 fa3c c1a0 d13d e276 883b
000000a0: 478c 94bd b32a 93bd c35f 833d 2eab babc
000000b0: f3cb e8bd 5d97 443e 7103 073d 7e4f 8d3d
000000c0: 6fdd 2dbe 7650 dbbd bf21 d33c 5a97 703b
000000d0: a629 163e 8c8d 913e bf7a 7a3e 802c 33be
000000e0: 53ec 98bd fda7 ce3a 8349 2dbd 0bf8 c0bd
000000f0: 4c0c f83b 2414 c2bd d48b dc3e 45e7 20bd
00000100: b15e 46be e4d4 973d d173 8b3e 883e 7cbe
00000110: b44e 9abc 86bd 9dbe 00a3 86be 95de 7bbe
00000120: 08b3 ab3c e6f3 b23d 4964 973e 1a6d e6bd
00000130: 8738 99bd 48d5 a1be 5873 c73d 2d70 f53d
00000140: 5d36 f13d 1e7d 933e d71f 443e 82ba 99bb
00000150: ac80 a93e f939 d4bb 51db e7bc 86f9 dabd
00000160: 1ad4 9dbe fa00 f4bd eb36 ab3c 6a55 d73c
00000170: ba06 823d 1b75 05bc 8ffd 1abe b885 a0be
00000180: 6b21 a43d 11d2 283e a32c ba3d 2cee 723e
00000190: a35a 4cbe e8d0 f5bc d5e8 d0bd 15fb 683e
000001a0: 2f9a 72bd 738f 8abe 882d 78bc 1855 d8bc
000001b0: 4c7e 8ebe 41fc 453d fb0f a43d 23a3 a63e
000001c0: be67 1f3e cead 27be 80e3 093d 5918 51bd
000001d0: 1140 a7ba 5a37 00be f4ef a13e eb43 f73d
000001e0: 1912 25be fdbc 003d b4a0 7a3c 7920 54be
000001f0: e719 a5be 1778 d23d 4821 2abe b002 a3bc
00000200: 6ac3 0dbd 8e99 bdbb b7a6 1ebd 372a f43d
00000210: 83d8 db3d ac57 53bd 865c a9be 5a15 61be
00000220: e8e0 853d e69e 013f 8818 8bbc 1d79 003d
00000230: 8a5a 3cbe 7488 55be 0932 c0bd a0b5 5f3e
00000240: cc7d 81bd fbcb 323e 6fbb c7bd 99bd 92be
00000250: 0d51 863d 29e7 143e aa15 0fbe f44d 493e
00000260: ffcd 3e3e 3e97 05bd af36 0b3e 7f39 70be
00000270: fcee 233e 2526 5b3e 56cb f13d b8cc 1dbe
00000280: 291a 3bbe 9344 88be 425f bcbc 73eb 90be
00000290: 73f3 343e 9274 1c3e 7c3b e3bc f94f 85bd
000002a0: d43d 61be ecc6 333e 389a fd3d bcd9 3a3e
000002b0: c6ff 293e f4b9 47be dcc2 c03b f64a 873c
000002c0: 51e6 82be 2eeb 9e3d 7766 9abe 1992 58be
000002d0: f049 4abe 4726 87be eefc fdbd b4ab 91be
000002e0: 421d 2c3d b781 5d3e e037 883d d5f2 83bc
000002f0: 1d7c 92be 2b73 02bd 4052 7ebc f95d c3bc
00000300: 7a22 4e3d 8626 bf3e e91b fe3c 2689 8d3e
00000310: 7169 47bc 2983 793e ddfc b4be 6c5c e0bd
00000320: e00b 193d 2e37 28be 195f 1d3d 7fbe 9cbe
00000330: 56a2 073d ffae 8d3e df88 97bd 0eba 653e
00000340: e795 823e 9480 333e a412 fe3d 6f2e 893e
00000350: ac1d 143e dd70 c3be fb67 30bc b7fe 2abe
00000360: 46b3 86bd 1bcb 60be d9c5 743d b909 4a3b
00000370: 41cb a2bd 09aa 683c d6f4 093e e5b0 9a3d
00000380: 5dbd 8bbd 5161 11be 23ad 00bd e450 c5be
00000390: 1cca dfbd 7529 8fbc 702c b5bd 5695 07be
000003a0: e2ed a43c ca89 3f3e 6847 0d3e 4f25 d43e
000003b0: 3d85 fe3d 1d6a dd3d bc90 edbd cfff 2cbe
000003c0: d353 89bd 43c5 a4be 6548 9b3d adbf 8b3d
000003d0: 7f92 12be 25da 6a3e e19b e53d 5983 ff3d
000003e0: 3d4b 0abe f8e7 2dbe 16fc b03d 21db 66be
000003f0: f768 de3c 3554 953c 1427 1ebe c8f8 9d3d
0.032056723 0.007818248 0.06556118 0.41587508 0.06462522 -0.3809 0.11409277 0.08752152
0.05195708 0.07678691 0.12677017 -0.21503636 0.06754925 0.21181217 0.28248718 -0.33112684
-0.21318443 0.020685535 -0.05984581 0.07936741 -0.05149308 0.26217145 -0.07895549 -0.44446245
0.20674476 -0.27749586 0.15363209 -0.22745566 0.36879376 0.027774343 -0.16954535 -0.07769128
-0.100479804 -0.10892056 0.28038436 -0.10709857 0.0639717 0.030587569 0.102357395 0.0041645626
-0.07253318 -0.071858786 0.064147495 -0.022786703 -0.11367025 0.19198366 0.032962266 0.068999276
-0.16979001 -0.10708706 0.025772927 0.0036711306 0.14664325 0.28428304 0.24460886 -0.17497444
-0.0746695 0.0015766617 -0.042306434 -0.094223104 0.0075698253 -0.09476498 0.4307543 -0.039283056
-0.1937206 0.074136525 0.27236798 -0.24633229 -0.018836357 -0.30808657 -0.26296234 -0.24596627
0.020959392 0.08737926 0.295687 -0.11251278 -0.07481485 -0.31608033 0.09738797 0.119842865
0.11777947 0.28806394 0.19152771 -0.004691423 0.3310598 -0.0064766374 -0.02830282 -0.10692124
-0.30825883 -0.11914249 0.02090021 0.026285846 0.06348939 -0.008145596 -0.15135787 -0.3135202
0.080141865 0.16486384 0.09090545 0.23723668 -0.1995645 -0.03000684 -0.10200659 0.2275203
-0.059229072 -0.27062568 -0.015147574 -0.026407763 -0.27830732 0.04833627 0.080108605 0.32546338
0.15566918 -0.16374895 0.033664227 -0.05104861 -0.0012760182 -0.12521115 0.31628382 0.12073501
-0.16120185 0.031430233 0.015297104 -0.20715512 -0.32246324 0.102768116 -0.16614258 -0.019898742
-0.03461019 -0.0057861274 -0.03873321 0.11922114 0.10734656 -0.051597282 -0.33078402 -0.21980801
0.06537038 0.50633085 -0.01697947 0.031365503 -0.18393913 -0.20852834 -0.093845434 0.21846628
-0.06322822 0.17460625 -0.09752547 -0.28660277 0.06558428 0.14541306 -0.13973108 0.19658643
0.18633269 -0.03261494 0.13595079 -0.23459433 0.16009134 0.2140127 0.118063614 -0.15410125
-0.18271698 -0.26614818 -0.022994641 -0.28304633 0.17670994 0.15278843 -0.027738325 -0.06509394
-0.21996242 0.17556351 0.123829305 0.18247122 0.16601476 -0.19504529 0.005882604 0.016515236
-0.25566342 0.07759701 -0.301563 -0.21149482 -0.19754767 -0.2639639 -0.12401758 -0.28451312
0.04202009 0.21631514 0.06651282 -0.016107002 -0.28610316 -0.031848114 -0.01552254 -0.02384852
0.05032585 0.3733408 0.031019168 0.27643698 -0.012171135 0.2436644 -0.3534917 -0.10955128
0.03736484 -0.164273 0.03842077 -0.30614087 0.0331138 0.27672574 -0.07399153 0.22434255
0.2550499 0.17529517 0.12405899 0.2679324 0.14464444 -0.38172045 -0.010766978 -0.16698729
-0.065771624 -0.21952479 0.059758995 0.003082855 -0.07948924 0.014200696 0.13472304 0.07553271
-0.068232276 -0.1419728 -0.031415116 -0.38538277 -0.10927221 -0.017475823 -0.088463664 -0.13240561
0.020132963 0.18704906 0.1379677 0.41434714 0.12427757 0.10811255 -0.115998715 -0.16894458
-0.06705441 -0.3218175 0.075821675 0.06823669 -0.14313696 0.22934778 0.11211372 0.124762245
-0.13505264 -0.1698302 0.086418316 -0.22544529 0.02714966 0.01822863 -0.15444595 0.07713467

base.mlp.fc_h.0.bias f4 [64]
00000000: 0000 0000 0000 0000 0000 0000 0000 0000
00000010: 0000 0000 0000 0000 0000 0000 0000 0000
00000020: 0000 0000 0000 0000 0000 0000 0000 0000
00000030: 0000 0000 0000 0000 0000 0000 0000 0000
00000040: 0000 0000 0000 0000 0000 0000 0000 0000
00000050: 0000 0000 0000 0000 0000 0000 0000 0000
00000060: 0000 0000 0000 0000 0000 0000 0000 0000
00000070: 0000 0000 0000 0000 0000 0000 0000 0000
00000080: 0000 0000 0000 0000 0000 0000 0000 0000
00000090: 0000 0000 0000 0000 0000 0000 0000 0000
000000a0: 0000 0000 0000 0000 0000 0000 0000 0000
000000b0: 0000 0000 0000 0000 0000 0000 0000 0000
000000c0: 0000 0000 0000 0000 0000 0000 0000 0000
000000d0: 0000 0000 0000 0000 0000 0000 0000 0000
000000e0: 0000 0000 0000 0000 0000 0000 0000 0000
000000f0: 0000 0000 0000 0000 0000 0000 0000 0000
0.0 0.0 0.0 0.0 0.0 0.0 0.0 0.0
0.0 0.0 0.0 0.0 0.0 0.0 0.0 0.0
0.0 0.0 0.0 0.0 0.0 0.0 0.0 0.0
0.0 0.0 0.0 0.0 0.0 0.0 0.0 0.0
0.0 0.0 0.0 0.0 0.0 0.0 0.0 0.0
0.0 0.0 0.0 0.0 0.0 0.0 0.0 0.0
0.0 0.0 0.0 0.0 0.0 0.0 0.0 0.0
0.0 0.0 0.0 0.0 0.0 0.0 0.0 0.0

base.mlp.fc_h.2.weight f4 [64]
00000000: 0000 803f 0000 803f 0000 803f 0000 803f
00000010: 0000 803f 0000 803f 0000 803f 0000 803f
00000020: 0000 803f 0000 803f 0000 803f 0000 803f
00000030: 0000 803f 0000 803f 0000 803f 0000 803f
00000040: 0000 803f 0000 803f 0000 803f 0000 803f
00000050: 0000 803f 0000 803f 0000 803f 0000 803f
00000060: 0000 803f 0000 803f 0000 803f 0000 803f
00000070: 0000 803f 0000 803f 0000 803f 0000 803f
00000080: 0000 803f 0000 803f 0000 803f 0000 803f
00000090: 0000 803f 0000 803f 0000 803f 0000 803f
000000a0: 0000 803f 0000 803f 0000 803f 0000 803f
000000b0: 0000 803f 0000 803f 0000 803f 0000 803f
000000c0: 0000 803f 0000 803f 0000 803f 0000 803f
000000d0: 0000 803f 0000 803f 0000 803f 0000 803f
000000e0: 0000 803f 0000 803f 0000 803f 0000 803f
000000f0: 0000 803f 0000 803f 0000 803f 0000 803f
1.0 1.0 1.0 1.0 1.0 1.0 1.0 1.0
1.0 1.0 1.0 1.0 1.0 1.0 1.0 1.0
1.0 1.0 1.0 1.0 1.0 1.0 1.0 1.0
1.0 1.0 1.0 1.0 1.0 1.0 1.0 1.0
1.0 1.0 1.0 1.0 1.0 1.0 1.0 1.0
1.0 1.0 1.0 1.0 1.0 1.0 1.0 1.0
1.0 1.0 1.0 1.0 1.0 1.0 1.0 1.0
1.0 1.0 1.0 1.0 1.0 1.0 1.0 1.0

base.mlp.fc_h.2.bias f4 [64]
00000000: 0000 0000 0000 0000 0000 0000 0000 0000
00000010: 0000 0000 0000 0000 0000 0000 0000 0000
00000020: 0000 0000 0000 0000 0000 0000 0000 0000
00000030: 0000 0000 0000 0000 0000 0000 0000 0000
00000040: 0000 0000 0000 0000 0000 0000 0000 0000
00000050: 0000 0000 0000 0000 0000 0000 0000 0000
00000060: 0000 0000 0000 0000 0000 0000 0000 0000
00000070: 0000 0000 0000 0000 0000 0000 0000 0000
00000080: 0000 0000 0000 0000 0000 0000 0000 0000
00000090: 0000 0000 0000 0000 0000 0000 0000 0000
000000a0: 0000 0000 0000 0000 0000 0000 0000 0000
000000b0: 0000 0000 0000 0000 0000 0000 0000 0000
000000c0: 0000 0000 0000 0000 0000 0000 0000 0000
000000d0: 0000 0000 0000 0000 0000 0000 0000 0000
000000e0: 0000 0000 0000 0000 0000 0000 0000 0000
000000f0: 0000 0000 0000 0000 0000 0000 0000 0000
0.0 0.0 0.0 0.0 0.0 0.0 0.0 0.0
0.0 0.0 0.0 0.0 0.0 0.0 0.0 0.0
0.0 0.0 0.0 0.0 0.0 0.0 0.0 0.0
0.0 0.0 0.0 0.0 0.0 0.0 0.0 0.0
0.0 0.0 0.0 0.0 0.0 0.0 0.0 0.0
0.0 0.0 0.0 0.0 0.0 0.0 0.0 0.0
0.0 0.0 0.0 0.0 0.0 0.0 0.0 0.0
0.0 0.0 0.0 0.0 0.0 0.0 0.0 0.0

base.mlp.fc2.0.0.weight f4 [64, 64]
00000000: d52b d6ba 4e94 913c cbca 9e3c f554 ee3e
00000010: 0f7c d73d 07e4 d5be d3b6 943d 8942 4e3d
00000020: 37e8 f53c f0cf b43d 949a 2c3e d318 6cbe
00000030: 12d1 e73d a490 813e a546 833e 1b60 b0be
00000040: 67be 75be fb3c 85ba c70a a5bd 078d ac3d
00000050: b2e5 90bd 4922 753e 36f5 e0bd e413 f4be
00000060: ae8d 833e 63da a2be f567 423e 04ca 6abe
00000070: 389f d53e de55 32bc 9f47 48be d587 aebd
00000080: 800a cdbd b8c2 9dbd b4ee 773e b724 d7bd
00000090: 6636 7b3c 006f 913c d13b 1c3e 5f02 2c3d
000000a0: 8110 b6bd 9de1 8ebd 1d2e 033d 2b51 86bd
000000b0: ee67 0ebe f660 273e 70d5 7c3d c8be d13d
000000c0: 0fc4 5bbe d783 02be b63d 183c b806 013d
000000d0: 99cb 3d3e 0b50 a93e e876 8d3e eac0 4ebe
000000e0: c985 d9bd 1235 083d e99e a2bd 014c 07be
000000f0: df8f 1fbd 5eab 0dbe f12f f33e 7e41 06bd
00000100: 3371 52be 1494 363d e766 9c3e 00df 4bbe
00000110: b536 dfbd 1319 79be 45fa 84be 9eba 72be
00000120: fd6d 893d e7ca ad3d 6148 953e 19f2 1ebe
00000130: 5305 f6bd f3dc a8be 2bac b33d cce2 ca3d
00000140: c99a 153e 00ba 8c3e 790e 403e f9b5 e3bc
00000150: c58c 9a3e e01f c63c a187 fbbc 05f8 51bd
00000160: 2798 9ebe 1e26 26bd b3ab 8c3d 9bc5 083c
00000170: f81f 0f3d 6fdc 41bc 9edf 21be 802c b6be
00000180: 59b2 473c 933c cc3d f4e6 b73d 4e6f 6a3e
00000190: 4241 13be 5900 66bd df85 0cbe 558d 6e3e
000001a0: f884 b3bc 5bea 81be 8cd9 c23c 9612 16bd
000001b0: 3302 90be cb43 ce3d 9a3d a83d 0880 ac3e
000001c0: e07e e83d 5669 4cbe f07e 963d 4eed 27bd
000001d0: 106e 52bd 9e54 08be 21c4 853e 208b 0d3e
000001e0: 063c f3bd 2532 2d3d 815b 203d d677 39be
000001f0: 2842 b9be 5667 2c3e c204 18be 8cf6 2ebb
00000200: d3d9 82bd 8f1a a23c e1c3 88bd f63e 063e
00000210: 0155 203e 7304 39bd ab59 b4be bb8c 81be
00000220: 645f f23c 1de4 093f 6207 4dbc 511d 493c
00000230: 14c3 5abe 4777 52be 4f71 eabd f677 833e
00000240: e052 89bd 9ab5 523e 18d5 0abe 5a76 97be
00000250: 6dcc 8a3d 22c3 df3d 9558 0fbe abbe 513e
00000260: 5bee 6d3e 205d 05bd 3a0d b83d 3d7e 86be
00000270: 7b5f 433e d64f 7b3e 00d1 e03d dfe9 31be
00000280: 3972 2dbe 456a 91be fa2d 4fbd e708 9cbe
00000290: 9e65 173e 548b 533e a8ba 8fbd 4431 cebd
000002a0: 1927 63be 10c8 543e e5d5 a53d ec35 5d3e
000002b0: 76ba 5a3e 6863 69be fdfc bf3c ee68 b13c
000002c0: fea9 82be 6ea5 eb3d d114 abbe 30c7 48be
000002d0: 83ab 54be ce4e 7abe a1ac 9cbd 2141 9fbe
000002e0: aa7b 493d 6d0c 843e 6b6f c23d 972a 23bd
000002f0: 5b10 9ebe 5ab2 84bd e901 db3a 3cc4 a1bc
00000300: 0797 283d b52d d03e 2760 613b 4350 923e
00000310: 5db5 5abc 2e62 863e 744a c0be 2263 1ebe
00000320: ff15 4b3c 7f4c 10be b0cb 723d 0fe0 a5be
00000330: 42be 213c 5f13 a43e 2427 b3bd 7a6b 863e
00000340: 48c7 893e 96d8 573e a179 053e aa7d 993e
00000350: 1a54 313e e936 d5be 7fe5 9aba 3fc9 3fbe
00000360: 6e2d 52bd ae0d 75be 52b7 523c df6e 7fbb
00000370: 0679 bebd 0734 073d af3c f93d eebe ee3d
00000380: 3aa7 29bd 2974 08be 8725 8abd daa7 d6be
00000390: 9a49 0ebe e31f f73c 7d6b 3ebd 89d6 38be
000003a0: 39d4 bf3a f70e 473e 18b1 ba3d 5081 d83e
000003b0: 7405 2f3e 6792 bd3d 8d12 13be f7fe 0bbe
000003c0: ef89 22bd ca92 aabe 7025 d63c 350b a63d
000003d0: 4d47 e8bd 9d6e 853e a871 193e db3c cf3d
000003e0: eed6 23be a8df 4fbe d9fe a93d ad7a 81be
000003f0: e7f2 15bc da5e 47bc 476b 47be 59ff d83d
-0.0016339967 0.017770912 0.019383809 0.46549192 0.10521709 -0.41775534 0.072614335 0.05035642
0.030017955 0.088287234 0.16855842 -0.23056345 0.11319174 0.25305665 0.25639835 -0.34448323
-0.23998414 -0.0010165268 -0.08058696 0.08425336 -0.07075061 0.2393886 -0.1098427 -0.47671425
0.2569403 -0.3180724 0.18984969 -0.22928625 0.41723037 -0.01088473 -0.19558571 -0.08522002
-0.10011768 -0.07703155 0.24212152 -0.1050505 0.015332794 0.017753124 0.15257193 0.04199445
-0.088898666 -0.06976626 0.0320264 -0.0655845 -0.13906834 0.16345581 0.061726987 0.10241467
-0.21461509 -0.12745605 0.009292057 0.031500548 0.18534698 0.3306888 0.2762978 -0.20190778
-0.106212206 0.033253737 -0.07940466 -0.13212587 -0.038955566 -0.13834903 0.47497514 -0.032777302
-0.20550995 0.044574812 0.30547258 -0.19909286 -0.108991064 -0.24325971 -0.2597219 -0.23704001
0.06710432 0.08485966 0.29156783 -0.1552204 -0.12012734 -0.3298107 0.08773073 0.09906539
0.14609827 0.27485657 0.18755521 -0.027796732 0.30185524 0.024185121 -0.030704321 -0.05126192
-0.30975458 -0.040563695 0.068686865 0.008347894 0.034942597 -0.011832341 -0.1580796 -0.35580826
0.0121885175 0.09972491 0.08979598 0.22894022 -0.14380363 -0.056152675 -0.13722943 0.23296101
-0.02191399 -0.25374112 0.023785375 -0.03663882 -0.28126678 0.10071524 0.082148746 0.3369143
0.113523245 -0.19962057 0.0734843 -0.040997796 -0.051374495 -0.13313529 0.26126197 0.13822603
-0.11876683 0.04228415 0.039149765 -0.1811212 -0.36183286 0.16836295 -0.14845565 -0.0026697246
-0.06389203 0.019788055 -0.06677986 0.13109955 0.15657426 -0.04517026 -0.3522466 -0.2530268
0.029586501 0.538637 -0.012513967 0.012275056 -0.21363479 -0.20553313 -0.11447393 0.2567746
-0.0670526 0.20577088 -0.13557851 -0.29582483 0.067772724 0.109258905 -0.13998635 0.2048289
0.23235457 -0.032559514 0.08986898 -0.26268187 0.19079392 0.24542174 0.109773636 -0.17374371
-0.16938104 -0.2840139 -0.050580956 -0.30475542 0.14784858 0.20658618 -0.07018024 -0.100679904
-0.22182883 0.20779443 0.08097438 0.21602601 0.21360192 -0.22791827 0.023436064 0.02165648
-0.2552032 0.115061626 -0.3341432 -0.19607234 -0.20768552 -0.24444124 -0.07650114 -0.31104377
0.0491902 0.2579073 0.094939075 -0.03983554 -0.30871853 -0.0647933 0.0016708943 -0.019746892
0.041159656 0.40659872 0.0034389587 0.2857686 -0.013348904 0.2624678 -0.37556803 -0.15467504
0.012395381 -0.14091681 0.059276283 -0.32397506 0.009872021 0.3204603 -0.087477 0.26253873
0.26909852 0.21078715 0.13034679 0.29978687 0.17317238 -0.41643456 -0.0011817663 -0.18729113
-0.051312856 -0.23931 0.01286109 -0.0038975996 -0.09300427 0.0330086 0.121697776 0.11657511
-0.041419245 -0.13325562 -0.06745439 -0.41924936 -0.13895264 0.030166572 -0.046489228 -0.18050589
0.0014635391 0.19439302 0.09115809 0.42286158 0.17091924 0.0925644 -0.14362545 -0.1367148
-0.039682325 -0.33315116 0.026140898 0.08107606 -0.113417245 0.26060954 0.14984763 0.10119029
-0.15999958 -0.20300162 0.083005615 -0.25288907 -0.009152151 -0.0121686105 -0.19474517 0.10595579

base.mlp.fc2.0.0.bias f4 [64]
00000000: 6d72 063d 8d14 26bc 1cbd f43c d355 0b3d
00000010: 2467 573d ee85 8dbc d258 abbc 441a 983c
00000020: 8b47 bebc 4786 d0bc d9ee 03bd 9c62 34bc
00000030: a90c 09bd 0920 833d 046a a23c 4ae8 a3bc
00000040: ed17 ba3c 5abb e8bc edd8 93bc 9935 153d
00000050: 684e f73c 877a 01bc 0225 61ba ff3e af3c
00000060: 829f 4dbc 0082 fa3c 2af8 213d 9e8d 7cbb
00000070: d168 b83d fbf0 813c eec2 833c e42e e1bc
00000080: 2622 fc3c f57b bd3c 2097 623d 3347 97bc
00000090: c96f bb3c d9f3 ab3d 3749 3c3d 484a 8fbc
000000a0: 2175 d4bc 2158 a43c a027 61bc 0cc6 af3c
000000b0: 7657 9f3c 083e 6ebc c303 ec3d dca9 bc3c
000000c0: 59be 913d c0b4 0e3d fb6c 36bc 2f3c 743d
000000d0: ceeb a5bc a117 d03c 207a e8bb c5f3 b2bc
000000e0: 9346 7abc 2002 e83c 2f5b 783d 6f3f 9e3d
000000f0: 9491 823c 49a1 d33c 28b1 103d 0186 fe3c
0.03282397 -0.010136736 0.02987533 0.034017395 0.052588597 -0.017275777 -0.020916376 0.018567212
-0.023227474 -0.025454653 -0.032210205 -0.011009838 -0.03345934 0.064025946 0.019825943 -0.020008225
0.022716487 -0.028409649 -0.018047774 0.036428068 0.030188754 -0.007902748 -0.00085885834 0.021392344
-0.012550237 0.030579567 0.03954331 -0.003853656 0.09004367 0.015861979 0.01608416 -0.02748818
0.030778002 0.023130396 0.055319905 -0.018466568 0.022880452 0.083961196 0.04596826 -0.017491475
-0.025934758 0.020061554 -0.0137423575 0.02145674 0.019450884 -0.014541157 0.11524155 0.023030214
0.07116384 0.034840345 -0.011134381 0.059627708 -0.020254042 0.025401892 -0.0070946366 -0.021844754
-0.015275615 0.028321326 0.060633834 0.07726943 0.015938558 0.025833743 0.0353252 0.031069757

base.mlp.fc2.0.2.weight f4 [64]
00000000: c8cc 7a3f 4cee 793f 751e 733f 226d 763f
00000010: 1516 833f 67be 6a3f b211 693f 2d0d 713f
00000020: 1c5d 6e3f b5ba 693f 3d00 783f 6767 813f
00000030: 5164 6a3f 9f02 843f d493 6c3f d834 793f
00000040: ca18 7a3f 1f0c 683f a3c4 783f 0355 7e3f
00000050: 4d60 763f 4e9c 783f 49d8 7a3f 51fe 6b3f
00000060: 77e9 723f d547 753f 8f39 7b3f 3e7b 803f
00000070: 6d8d 7f3f 90ce 743f 443b 6e3f f5e6 6c3f
00000080: 02ed 7c3f c9f9 713f 7ad1 813f 768f 773f
00000090: 9d2b 6e3f dd82 7f3f 21ac 7b3f c0d2 743f
000000a0: 8ac5 703f f4c5 6a3f c867 753f ac79 753f
000000b0: 5242 743f 8a28 723f 5a67 813f d06a 7a3f
000000c0: a390 803f f73c 773f 7ff7 773f 60b6 823f
000000d0: ad0b 793f 364d 7b3f dbeb 783f 17d2 6d3f
000000e0: 24f0 723f f377 6e3f 68c3 853f 2361 803f
000000f0: d755 673f 4940 713f abf5 7c3f 931c 773f
0.9796872 0.9762924 0.9496835 0.96260273 1.0241114 0.9169678 0.91042626 0.9416073
0.93110824 0.9130052 0.96875364 1.0109681 0.9155932 1.03133 0.9241307 0.9734626
0.97694075 0.90643495 0.97175044 0.9934847 0.96240693 0.971135 0.97986275 0.9218493
0.9488749 0.9581273 0.981347 1.003761 0.99825174 0.9562769 0.9305918 0.9253991
0.98799145 0.94521767 1.0142052 0.9670328 0.930353 0.99809057 0.9830952 0.9563408
0.9405142 0.917083 0.9586148 0.9588878 0.95413697 0.9459311 1.0109665 0.9781923
1.004414 0.965774 0.96862024 1.0211906 0.9728344 0.9816469 0.97234887 0.92898697
0.94897676 0.9315178 1.0450258 1.0029644 0.90365356 0.94238716 0.9881236 0.96527976

base.mlp.fc2.0.2.bias f4 [64]
00000000: eb8f 8e3c c64e 89bc c4ea 983c c9d9 9d3c
00000010: c4fc a33c af80 89bc bafd 92bc aea4 8a3c
00000020: c8f6 90bc e122 94bc b84b 87bc 5009 9cbc
00000030: 212a 8cbc 8f29 523c 6d56 913c de41 9fbc
00000040: 084e 773c 572d 8ebc a7aa 97bc bf04 953c
00000050: b8bf 8c3c 66a3 88bc d517 7abc 6e91 903c
00000060: fc41 8bbc ed52 973c 0af8 693c a00f 92bc
00000070: 652a 233d 4954 823c b64a 8a3c 254a 89bc
00000080: c641 963c d92a 963c 062b ae3c 4afd 94bc
00000090: b3ec 8c3c 1348 01bc dca1 863c 1d1d 91bc
000000a0: 6901 8abc 2568 923c 3cbe 98bc cd4f 8f3c
000000b0: 4a99 853c 184f 92bc bcef 423c 10f8 6c3c
000000c0: 362e 003d b4cb 963c e663 99bc 8614 c13c
000000d0: b90f 91bc 4a1b 8f3c bc73 94bc 527a 97bc
000000e0: e854 99bc f4d3 963c 9a31 d3bc 9e96 b63c
000000f0: dba7 8a3c 1840 923c 7c13 9b3c 9e20 8d3c
0.01740261 -0.016761195 0.018666632 0.019268887 0.020017989 -0.016784994 -0.017943252 0.016924229
-0.0176958 -0.018083038 -0.016515598 -0.01904741 -0.017109932 0.012827291 0.017741406 -0.019440588
0.015094288 -0.017355604 -0.01851399 0.01819074 0.017181262 -0.016679477 -0.015264471 0.017647471
-0.016999237 0.01847216 0.0142803285 -0.017829716 0.039835352 0.01590933 0.016881328 -0.016758988
0.01834191 0.018330978 0.02126075 -0.018187184 0.01720271 -0.007890719 0.016434602 -0.017714078
-0.016846376 0.017871926 -0.018645398 0.017494107 0.016308445 -0.01785998 0.011897977 0.01446344
0.03129407 0.01840768 -0.018724393 0.023569357 -0.017707692 0.017469067 -0.018121593 -0.018490944
-0.018717244 0.018411614 -0.025780488 0.022288617 0.016925743 0.017852828 0.01893019 0.017227467

v_out.weight f4 [1, 64]
00000000: 546c bc3c 94c6 74bc 7bee 443d 9a71 343d
00000010: 0ef6 da3c dc6d 19be 8029 8bbd 1e9a 983d
00000020: f42c 87bd 9b28 95bd 027a 5bbe 6ad3 04bd
00000030: 7078 1cbe 3670 d43c 49df a03d 0207 dcbc
00000040: e31d 373d 8ba4 f9bd a1cb 58bd f3a4 493d
00000050: 642a 013d 49ef 41bc e234 07bd 3ea7 aa3d
00000060: 64e9 1cbd 2623 3a3d b527 a93c 85a3 1bbd
00000070: 1e50 c7ba 189e 063e 95d4 d13d bb49 1bbe
00000080: a6bc 513d 7fbe 843d 7a26 bc3c 66ac 22bd
00000090: cf83 b13d 76f5 7b3c 44a5 863c 5798 3dbd
000000a0: 3852 56be 4aad 8a3d 08a7 1abd f842 613d
000000b0: 2cb3 923d a5c0 4cbd 20f3 083c ac7f 183d
000000c0: 6793 3d3c 83b7 413d 4b20 2cbd e99e a43c
000000d0: 7dfd a7bd f2ba 4a3d a468 95bc d2c9 1abd
000000e0: 28b0 88bc c10d 353d 6180 ef3c 0fe9 873b
000000f0: e21f 363e fb75 9a3d 19b4 283d cb1e 573d
0.023000874 -0.014939923 0.048078995 0.04405365 0.026728656 -0.14983314 -0.06795025 0.074512705
-0.06600371 -0.072831355 -0.21433261 -0.032428183 -0.15280318 0.025932413 0.07855088 -0.02685881
0.044706237 -0.12189587 -0.05292857 0.049229573 0.031534567 -0.011836835 -0.033009417 0.0833268
-0.038308516 0.045443676 0.020648817 -0.03799774 -0.0015206372 0.13146245 0.10245625 -0.15164845
0.0512053 0.06481647 0.022967566 -0.039715193 0.086677186 0.015378347 0.016436227 -0.04628786
-0.20929801 0.067713335 -0.03775695 0.054995507 0.071630806 -0.049988408 0.008358747 0.037231132
0.011570788 0.04729415 -0.042022984 0.020095306 -0.08202646 0.04949469 -0.018238373 -0.037790127
-0.01668556 0.04420257 0.02923602 0.004147656 0.177856 0.07542034 0.04118738 0.0525196
