block_based_index_recommendation_my/free-origin/index/rl_index_selection/light_mappo/results/MyEnv/MyEnv/mappo/check/run2/models/actor.pt (torch, 44940 bytes, 17 tensors)

base.feature_norm.weight f4 [14]
1.0114751 1.0250387 1.0031457 1.0196801 0.9525659 0.96911675 1.0079417 1.0351936
1.0166456 1.0536103 0.98421633 0.9862089 0.9886389 0.9798447
00000000: 0478 813f 7834 833f 1467 803f e184 823f
00000010: 5cdb 733f 0918 783f 3c04 813f 3981 843f
00000020: 7121 823f b4dc 863f 9af5 7b3f 3078 7c3f
00000030: 7017 7d3f 1ad7 7a3f

base.feature_norm.bias f4 [14]
0.02702502 0.05413495 0.040068794 0.047050636 0.033562083 0.037457787 -0.03198382 0.059688564
-0.019154122 0.022031981 0.0040227766 -0.0012680247 0.038967665 -0.063586995
00000000: 9363 dd3c 9cbc 5d3d 2d1f 243d 2bb8 403d
00000010: 6578 093d 566d 193d 7701 03bd ff7b 743d
00000020: 1be9 9cbc 6a7c b43c 7fd1 833b d933 a6ba
00000030: 8f9c 1f3d e639 82bd

base.mlp.fc1.0.weight f4 [64, 14]
0.23704185 -0.06622739 0.07311206 -0.043828424 -0.02600078 -0.2763157 -0.20395574 0.2510105
-0.21151213 -0.036501832 0.061383866 0.033010885 0.3801005 0.21282761 0.13559774 0.0023735177
0.20829815 -0.119376846 -0.04984463 0.28512025 0.16196199 0.11646657 -0.22526152 0.16932799
0.11394048 0.023627676 0.4687355 -0.260627 0.027520841 0.24591619 -0.13394038 -0.053761054
-0.16701296 -0.06532586 0.07112774 -0.02827106 -0.24256462 -0.08385709 -0.0013634026 -0.02931502
0.23055711 0.09414215 0.048701115 0.5448729 0.089488715 0.06667577 -0.10551545 0.13009422
-0.08639199 0.04229995 -0.28724584 0.34153965 0.3009078 -0.22348401 -0.098809496 0.053922467
-0.22817041 -0.037075832 -0.08182381 0.36411214 0.01383604 0.07556207 0.1287704 0.1625426
0.2400148 -0.13609615 -0.00590083 -0.22822426 0.15325703 -0.09511764 0.08659101 -0.17384842
-0.17959101 -0.17598295 -0.18709505 0.121597685 -0.037068076 -0.08023228 0.26725274 0.09460421
-0.0710826 -0.46228957 -0.057793148 0.2122626 0.3319435 -0.28035316 0.030333802 -0.3062786
-0.044327583 0.0819702 0.034795526 0.20116399 -0.05611534 0.01064031 -0.32508025 -0.00052397733
0.07990106 -0.16677374 -0.019763093 0.14068754 0.25897717 -0.21344736 0.14568253 0.15298301
0.07241997 0.021990841 -0.041841555 0.18245247 -0.1524684 0.06712357 0.10370633 -0.087397896
0.04898693 -0.15394044 0.07686373 0.08345539 0.18225743 -0.38720012 0.11741264 0.27530703
-0.1029721 -0.0977046 0.07795341 -0.111158036 -0.26571158 -0.08500019 0.09073719 0.12755488
0.14504252 -0.32273743 -0.13104415 -0.3609773 -0.01907061 -0.061994605 0.19334261 -0.10199488
0.103702255 0.09057008 0.118261755 0.09843 -0.13403316 -0.08254569 0.2369217 0.035260677
0.09853254 -0.30934012 -0.33297476 0.4171019 0.07741688 0.25025266 -0.027022999 -0.048553664
-0.019336797 -0.12612516 0.011280439 -0.031120416 0.38900012 0.17004307 0.12911989 -0.05372954
0.06744835 -0.23827462 0.07679993 0.10307718 0.21450728 0.07285564 0.15133221 -0.20796609
0.24120906 -0.2891312 -0.34385213 -0.23330556 0.023819564 -0.12965833 0.15175278 0.11328233
-0.34665588 -0.12194966 0.16442634 -0.09602486 -0.12286143 0.34302145 0.4506881 -0.113836564
-0.16852953 0.12211577 0.11031598 0.21323022 -0.034335636 0.25549853 0.4610248 -0.12715289
0.15616962 0.055925682 0.19931456 -0.010592329 -0.1848158 0.18511574 0.015401929 -0.07555288
0.046452858 -0.079345755 -0.028923212 0.1770744 0.3879317 -0.008930209 0.09615871 -0.035741873
-0.15957393 0.15051635 -0.29713002 0.008715139 0.2691244 0.24921145 -0.039743606 0.09224912
-0.104493394 -0.036222097 0.009254628 0.001858901 0.032831464 0.03324636 -0.25912967 -0.042152666
-0.17042214 -0.07169213 -0.2117411 0.113138795 -0.034095433 -0.030171175 -0.20774576 -0.06335695
0.0073246597 0.38064715 -0.28590128 -0.021959908 -0.21723007 -0.0063845417 0.29821393 -0.331899
0.14884624 0.37738279 0.043911975 0.015164564 0.042305633 0.077443995 0.018208282 -0.008572095
0.2952547 0.17184204 -0.23727126 -0.1444937 0.17523189 0.017985836 -0.12818752 -0.32119432
00000000: 19bb 723e 3aa2 87bd c7bb 953d 6f85 33bd
00000010: 96ff d4bc 4079 8dbe c6d9 50be 7384 803e
00000020: a396 58be f282 15bd a66d 7b3d 6c36 073d
00000030: 889c c23e 7bef 593e 22da 0a3e 058d 1b3b
00000040: 1c4c 553e d97b f4bd e229 4cbd 48fb 913e
00000050: 5dd9 253e 0686 ee3d f5aa 66be 5164 2d3e
00000060: a059 e93d d48e c13c 19fe ef3e e770 85be
00000070: 6373 e13c 74d1 7b3e ab27 09be 8d34 5cbd
00000080: 7205 2bbe 91c9 85bd 6cab 913d b698 e7bc
00000090: dc62 78be 44bd abbd 33b4 b2ba 0e26 f0bc
000000a0: 2a17 6c3e 99cd c03d d27a 473d ca7c 0b3f
000000b0: dc45 b73d 4e8d 883d 7c18 d8bd 6b37 053e
000000c0: 49ee b0bd b642 2d3d e311 93be 49de ae3e
000000d0: 9610 9a3e fed8 64be a25c cabd cedd 5c3d
000000e0: 81a5 69be d4dc 17bd 3e93 a7bd e86c ba3e
000000f0: 8fb0 623c 49c0 9a3d 63dc 033e 9171 263e
00000100: 71c6 753e ca5c 0bbe c05b c1bb 9fb3 69be
00000110: 69ef 1c3e 0acd c2bd a156 b13d 5205 32be
00000120: b5e6 37be e034 34be d895 3fbe 3508 f93d
00000130: b2d4 17bd d250 a4bd 5ad5 883e dabf c13d
00000140: c193 91bd 38b1 ecbe 82b8 6cbd 5e5b 593e
00000150: 80f4 a93e 738a 8fbe 987e f83c 8cd0 9cbe
00000160: d790 35bd fedf a73d c185 0e3d effd 4d3e
00000170: 33d9 65bd b254 2e3c eb70 a6be 865b 09ba
00000180: 2ba3 a33d bcc6 2abe 36e6 a1bc 6510 103e
00000190: a898 843e f291 5abe cd2d 153e 94a7 1c3e
000001a0: ec50 943d 2326 b43c 0d62 2bbd d2d4 3a3e
000001b0: ad20 1cbe 1578 893d fc63 d43d abfd b2bd
000001c0: 85a6 483d 90a2 1dbe bb6a 9d3d a9ea aa3d
000001d0: b1a1 3a3e 183f c6be 0a76 f03d 0bf5 8c3e
000001e0: 09e3 d2bd 5919 c8bd 0aa6 9f3d d3a6 e3bd
000001f0: 590b 88be 9414 aebd 6bd4 b93d bf9d 023e
00000200: 0786 143e d73d a5be 7030 06be 04d2 b8be
00000210: f839 9cbc 0eee 7dbd 9bfb 453e b1e2 d0bd
00000220: d961 d43d ce7c b93d 3833 f23d ab95 c93d
00000230: fd3f 09be b70d a9bd 9a9b 723e 806d 103d
00000240: 6ecb c93d d461 9ebe ab7b aabe 618e d53e
00000250: be8c 9e3d 1e21 803e 565f ddbc 35e0 46bd
00000260: 3468 9ebc f426 01be 97d1 383c 3ef0 febc
00000270: 062b c73e c51f 2e3e 0138 043e 8213 5cbd
00000280: 5c22 8a3d 43fe 73be 4849 9d3d 211a d33d
00000290: cca7 5b3e 5635 953d d5f6 1a3e 10f5 54be
000002a0: 82ff 763e 0109 94be 630d b0be a7e7 6ebe
000002b0: 3f21 c33c 27c5 04be 1565 1b3e 9100 e83d
000002c0: e17c b1be bec0 f9bd 615f 283e afa8 c4bd
000002d0: c69e fbbd 82a0 af3e 97c0 e63e 2523 e9bd
000002e0: 0193 2cbe d517 fa3d 58ed e13d 0659 5a3e
000002f0: 86a3 0cbd b4d0 823e 710b ec3e 5e34 02be
00000300: eeea 1f3e 5412 653d 1e19 4c3e 738b 2dbc
00000310: 5a40 3dbe fb8e 3d3e 5f58 7c3c 78bb 9abd
00000320: 5a45 3e3d 0780 a2bd 5ff0 ecbc fe52 353e
00000330: fc9e c63e 0350 12bc dcee c43d 1266 12bd
00000340: 5967 23be f520 1a3e 6d21 98be f1c9 0e3c
00000350: acca 893e 4931 7f3e 31ca 22bd 1bed bc3d
00000360: a200 d6bd 9f5d 14bd b9a0 173c 5ea6 f33a
00000370: 497a 063d 562d 083d a5ac 84be 46a8 2cbd
00000380: 2483 2ebe 53d3 92bd a9d2 58be 50b5 e73d
00000390: a7a7 0bbd 8a29 f7bc 4ebb 54be 4ac1 81bd
000003a0: b303 f03b 2fe4 c23e a761 92be 44e5 b3bc
000003b0: 8f71 5ebe 6b35 d1bb 7faf 983e aaee a9be
000003c0: 266b 183e 5138 c13e 0bdd 333d cb74 783c
000003d0: ac48 2d3d f59a 9e3d 8929 953c f971 0cbc
000003e0: a02b 973e 5cf7 2f3e 3df7 72be 28f6 13be
000003f0: fd6f 333e 0857 933c 9743 03be 9573 a4be

base.mlp.fc1.0.bias f4 [64]
-0.023416458 0.031244095 -0.039263044 -0.0019897034 0.017206796 -0.074801736 0.003656696 0.0004586675
0.043858696 -0.039499994 0.01990702 0.057614513 -0.06375099 -0.010754903 -0.030670844 0.0068047387
-0.05583364 -0.015788542 -0.020914337 0.016374592 -0.062007308 0.021760194 -0.039748397 0.03630921
-0.0019946224 0.03106325 -0.01192852 -0.008835291 -0.039055165 0.015312822 -0.007841426 0.055998996
-0.035757445 -0.06177727 0.041941583 0.030708943 -0.04625174 0.0012240347 0.040710837 -0.07813572
0.0064740935 -0.009342571 -0.051637176 -0.008696943 -0.03633118 0.09117771 -0.04311213 0.033636436
-0.040935837 -0.02110957 -0.012397147 -0.014277457 -0.00414017 -0.016789211 -0.04709226 -0.002072148
0.017667253 0.048945174 -0.053037565 -0.062417544 0.019338155 0.0016533647 0.0073587145 0.060481552
00000000: dfd3 bfbc 9ef3 ff3c 49d2 20bd af65 02bb
00000010: 44f5 8c3c a731 99bd 2ea5 6f3b 4f79 f039
00000020: 2da5 333d bfca 21bd 0c14 a33c 32fd 6b3d
00000030: e18f 82bd 5535 30bc 6c41 fbbc 49fa de3b
00000040: d1b1 64bd f956 81bc 8b54 abbc 0224 863c
00000050: 60fb 7dbd 6f42 b23c 37cf 22bd f7b8 143d
00000060: 36b8 02bb 5b78 fe3c d76f 43bc e5c1 10bc
00000070: 4ff8 1fbd a1e2 7a3c 5379 00bc 345f 653d
00000080: 6676 12bd 2a0a 7dbd f0ca 2b3d 5291 fb3c
00000090: 7772 3dbd ca6f a03a 68c0 263d 9f05 a0bd
000000a0: a224 d43b 9511 19bc 8181 53bd 9f7d 0ebc
000000b0: 01d0 14bd 61bb ba3d 5896 30bd 5cc6 093d
000000c0: 56ac 27bd faed acbc 671d 4bbc ffeb 69bc
000000d0: 43aa 87bb 8789 89bc d0e3 40bd e0cc 07bb
000000e0: eaba 903c bc7a 483d eb3d 59bd 8aa9 7fbd
000000f0: 0d6b 9e3c b7b5 d83a 5f21 f13b 81bb 773d

base.mlp.fc1.2.weight f4 [64]
1.0081478 1.0566599 0.9413323 1.0126787 1.0597014 0.9778909 0.9772356 0.95337397
0.9964055 1.0121822 1.0585583 0.9835511 1.0386593 0.97315466 0.9839212 1.0935761
0.8792853 0.9846788 0.99558806 1.0604763 1.0313689 0.9974754 0.996527 1.0799674
1.0332501 1.006016 0.9627685 0.9739659 0.95658755 0.9497414 0.95913464 1.0921061
0.9762312 0.95701146 1.0216696 1.0003045 0.96221316 1.0431995 0.97781396 1.0344427
1.0572926 0.97316194 0.9725653 0.99901485 1.0879712 1.0581533 0.98828244 1.0216843
0.99460894 0.96312815 0.9765307 1.0162379 0.9716839 0.97416073 0.9998434 0.95560443
1.0609138 1.013196 0.88673633 1.0080389 0.9843878 0.9932806 0.94435453 1.017007
00000000: fd0a 813f a240 873f 27fb 703f 759f 813f
00000010: 4ca4 873f 0f57 7a3f 1d2c 7a3f 5110 743f
00000020: 6e14 7f3f 308f 813f d77e 873f 01ca 7b3f
00000030: caf2 843f aa20 793f 42e2 7b3f 4dfa 8b3f
00000040: d718 613f e913 7c3f dcde 7e3f b0bd 873f
00000050: e503 843f 8c5a 7f3f 651c 7f3f 5f3c 8a3f
00000060: 8a41 843f 22c5 803f ff77 763f d455 793f
00000070: ece2 743f 4122 733f d989 753f 22ca 8b3f
00000080: 4aea 793f b4fe 743f 12c6 823f fa09 803f
00000090: 9a53 763f 9087 853f 0452 7a3f 9e68 843f
000000a0: 5d55 873f 2421 793f 0afa 783f 70bf 7f3f
000000b0: a442 8b3f 9171 873f 1400 7d3f 8dc6 823f
000000c0: b19e 7e3f 918f 763f eafd 793f 1514 823f
000000d0: 47c0 783f 9962 793f bdf5 7f3f 7ea2 743f
000000e0: 06cc 873f 68b0 813f 2701 633f 6b07 813f
000000f0: d700 7c3f a347 7e3f 38c1 713f 492d 823f

base.mlp.fc1.2.bias f4 [64]
-0.029145591 0.061674155 0.025233466 -0.009106854 0.00076171855 -0.0488035 -0.037241645 0.0050072297
0.002821794 0.033249453 0.033567574 0.062019315 -0.018288866 -0.020121833 0.04698188 -0.010857233
-0.02983087 0.007908675 -0.027410563 0.0062770634 -0.039953195 0.0034632953 -0.027769791 -0.04620495
-0.0056470884 0.077138804 0.026170138 -0.010534775 0.034787245 -0.0010184636 0.04314007 -0.02524009
-0.013810464 -0.038025003 0.021695549 -0.026675733 -0.047186047 -0.038540784 0.042163905 -0.046504185
-0.009877901 7.470883e-06 -0.033048023 -0.03421007 -0.041136947 0.02882218 -0.043876797 0.0007196067
0.005853254 0.031520072 0.034604818 0.00024734327 -0.01344138 -0.02580506 -0.039011676 0.040877145
0.0021078123 0.053847633 -0.013250282 -0.060238186 0.045693036 -0.01340228 0.024030827 0.0572848
00000000: bcc2 eebc 0a9e 7c3d 6ab6 ce3c ea34 15bc
00000010: 11ae 473a 2ee6 47bd b28a 18bd b013 a43b
00000020: d9ed 383b 9430 083d 277e 093d f707 7e3d
00000030: 88d2 95bc 8bd6 a4bc 1270 403d 89e2 31bc
00000040: de5f f4bc 6393 013c 1e8c e0bc d3af cd3b
00000050: f6a5 23bd 74f8 623b 797d e3bc 6741 3dbd
00000060: 360b b9bb f3fa 9d3d c262 d63c 0d9a 2cbc
00000070: 127d 0e3d f87d 85ba a4b3 303d 4ec4 cebc
00000080: 4945 62bc 1bc0 1bbd ddba b13c 1187 dabc
00000090: 2846 41bd f1dc 1dbd 0fb4 2c3d 2c7b 3ebd
000000a0: ebd6 21bc 65ae fa36 5d5d 07bd dc1f 0cbd
000000b0: 377f 28bd 7e1c ec3c 28b8 33bd fda3 3c3a
000000c0: a7cc bf3b 311b 013d c8bd 0d3d daad 8139
000000d0: 3c39 5cbc 2265 d3bc b5ca 1fbd cb6e 273d
000000e0: 3923 0a3b 568f 5c3d b617 59bc 51bc 76bd
000000f0: 9f28 3b3d 3d95 5bbc 4cdc c43c 77a3 6a3d

base.mlp.fc_h.0.weight f4 [64, 64]
-0.18151923 -0.15650307 0.0070342333 0.16918509 -0.12546782 -0.16393085 -0.25082287 0.089140184
0.30820146 -0.117100805 0.2685054 -0.16110186 0.16290717 -0.18449785 -0.23151375 0.12878415
-0.025832664 -0.17070185 0.062008407 0.11430793 0.19807813 0.08937491 -0.1825898 -0.055601723
0.034677 0.36204413 0.06635752 0.0013869434 -0.2181826 0.11048576 0.4236852 -0.11157964
-0.15286416 0.062907875 -0.2520531 0.10528248 0.23751462 -0.15249604 -0.017405547 0.034101862
0.038248193 0.08227629 -0.12667207 -0.10368282 -0.12784125 0.019374961 0.42397454 -0.15151641
-0.035293724 -0.12258085 -0.21953006 -0.20427535 -0.14448722 -0.15305011 0.045645427 -0.32804707
-0.033707604 -0.020030558 0.16829452 -0.23630762 -0.11480462 -0.13504432 0.25639695 -0.2519728
-0.16996875 -0.090817966 0.2196299 -0.14567487 0.049022876 -0.25145102 0.011618246 0.011172247
0.13203935 -0.14809741 -0.09473679 0.027993122 0.37336138 0.18219434 -0.09746951 -0.080458164
-0.39772114 0.0013356231 -0.015057507 -0.23549427 -0.1674945 0.05874455 -0.2775869 -0.034474663
0.021418842 -0.17957164 -0.2543069 0.18972749 -0.17606208 0.032951824 0.048713706 0.069402836
-0.11561516 -0.089209355 0.14285773 -0.1944625 0.033263374 0.31601 0.2509955 -0.20784095
0.19795723 0.2904297 -0.17570668 -0.28663602 0.050898768 -0.1162629 -0.029008921 -0.17440498
0.16610348 0.19592303 0.1716482 -0.17611873 0.26498413 -0.110736355 0.029247738 0.33126938
-0.19032185 0.033401318 0.18126313 0.18121932 -0.2298609 0.1292599 0.14806217 -0.094202586
0.13883111 0.2608916 0.081028745 0.31200436 -0.16574681 0.22913893 -0.16802996 -0.072662964
-0.28488702 -0.31264082 -0.27705386 0.054188367 -0.08194122 0.06784876 -0.18120058 0.31031084
-0.037723262 0.12316662 0.16452573 -0.16669035 0.10440492 -0.39929706 -0.022124782 -0.277753
-0.15064819 -0.054353148 -0.0085860295 -0.26577532 0.0071436563 0.043460988 0.17171407 -0.27411723
-0.03823992 -0.07736815 0.14575846 -0.3895164 0.2268054 -0.06291797 0.3109353 -0.28871903
-0.098863415 0.07313052 0.03792907 -0.031143913 0.06409408 -0.09859461 -0.029580267 -0.14886637
0.17309351 -0.21410358 0.17490527 0.21904886 -0.20868984 0.038003087 -0.010212069 -0.10133334
-0.0028190366 0.011522196 -0.18251254 -0.05253388 0.03553592 0.02933308 0.22359155 -0.07445638
0.11573053 -0.015546103 0.016775845 0.16583292 -0.1539608 0.15724279 0.13792391 0.14173989
0.06176331 -0.15225689 0.055199638 -0.15530084 0.012589372 0.28667566 -0.1181416 -0.19023056
0.1662049 -0.17371464 -0.22211483 -0.12016244 0.16954339 0.1284204 0.15091537 0.19472282
-0.12509757 -0.044418193 -0.04146987 -0.09857255 0.31479433 -0.07545617 0.4542884 -0.14514965
-0.05517918 0.06465499 0.1350284 -0.046722125 0.08818282 0.16562308 -0.0126359295 0.011085567
0.25396323 0.18022585 -0.1849279 -0.042803604 0.44156688 3.888705e-06 -0.21818385 0.2579725
-0.33125845 0.2834636 0.16116396 -0.007613857 -0.029788984 0.24454731 -0.10527136 -0.16626485
-0.041932173 -0.30104423 0.30887777 -0.11127582 0.15974635 -0.06533753 -0.1336816 -0.16417621
00000000: 2de0 39be 5742 20be 6d7f e63b db3e 2d3e
00000010: a37a 00be 7ddd 27be db6b 80be 218f b63d
00000020: 95cc 9d3e 8cd2 efbd 8a79 893e e3f7 24be
00000030: 23d1 263e 01ed 3cbe f111 6dbe fedf 033e
00000040: 069f d3bc 77cc 2ebe 87fc 7d3d 471a ea3d
00000050: fed4 4a3e 310a b73d d2f8 3abe a2be 63bd
00000060: 7809 0e3d d95d b93e 74e6 873d 19ca b53a
00000070: 426b 5fbe 5c46 e23d 44ed d83e de83 e4bd
00000080: 6c88 1cbe d8d5 803d 1b0d 81be 579e d73d
00000090: 0837 733e ec27 1cbe 1496 8ebc 65ae 0b3d
000000a0: 23aa 1c3d 7980 a83d 53b6 01be a957 d4bd
000000b0: d1e8 02be 3db8 9e3c 3113 d93e 1e27 1bbe
000000c0: 2790 10bd ab0b fbbd 7dcc 60be 8f2d 51be
000000d0: 75f4 13be 2bb9 1cbe b3f6 3a3d c9f5 a7be
000000e0: fc10 0abd 2017 a4bc 6655 2c3e a0fa 71be
000000f0: af1e ebbd 0f49 0abe 7646 833e 9402 81be
00000100: 4a0c 2ebe c5fe b9bd a9e6 603e cb2b 15be
00000110: 36cc 483d 30be 80be 755a 3e3c cd0b 373c
00000120: 5335 073e d9a6 17be 5d05 c2bd d551 e53c
00000130: 3929 bf3e 2791 3a3e 189e c7bd 40c7 a4bd
00000140: 1ba2 cbbe 1310 af3a c3b3 76bc 6925 71be
00000150: ae83 2bbe 209e 703d df1f 8ebe 4e35 0dbd
00000160: 9176 af3c a1e1 37be 8434 82be ec47 423e
00000170: 9e49 34be 7ef8 063d 0688 473d 1323 8e3d
00000180: a4c7 ecbd 65b3 b6bd 4c49 123e 2d21 47be
00000190: 2d3f 083d 10cc a13e 7b82 803e 42d4 54be
000001a0: 4db5 4a3e 34b3 943e 74ec 33be f5c1 92be
000001b0: 3a7b 503d 3e1b eebd 1ea4 edbc 3897 32be
000001c0: 0817 2a3e 0ca0 483e 8cc4 2f3e 7858 34be
000001d0: 00ac 873e bec9 e2bd f498 ef3c 249c a93e
000001e0: bbe3 42be d2cf 083d 0b9d 393e 8f91 393e
000001f0: a860 6bbe b55c 043e 9c9d 173e 49ed c0bd
00000200: be29 0e3e 9593 853e 66f2 a53d 09bf 9f3e
00000210: 88b9 29be 65a3 6a3e 0c10 2cbe 52d0 94bd
00000220: b6dc 91be 7512 a0be 01da 8dbe 9ff4 5d3d
00000230: ccd0 a7bd 4af4 8a3d a58c 39be 10e1 9e3e
00000240: b583 1abd c83e fc3d 6f79 283e e0b0 2abe
00000250: 3fd2 d53d aa70 ccbe 083f b5bc a435 8ebe
00000260: 8543 1abe 68a1 5ebd 6bac 0cbc b413 88be
00000270: 5515 ea3b 2604 323d d0d5 2f3e 1859 8cbe
00000280: 76a1 1cbd 3173 9ebd b541 153e b26e c7be
00000290: ad3f 683e 23db 80bd e932 9f3e fbd2 93be
000002a0: e778 cabd 74c5 953d 835b 1b3d 8521 ffbc
000002b0: c243 833d f9eb c9bd 5152 f2bc 6d70 18be
000002c0: 6d3f 313e f83d 5bbe 5e1a 333e 584e 603e
000002d0: cab2 55be 20a9 1b3d 8650 27bc db87 cfbd
000002e0: 96bf 38bb 98c7 3c3c 91e4 3abe c42d 57bd
000002f0: 1d8e 113d ed4b f03c 2ff5 643e 967c 98bd
00000300: 2104 ed3d 15b5 7ebc 7f6d 893c 1bd0 293e
00000310: e6a7 1dbe 4104 213e ed3b 0d3e 4324 113e
00000320: 86fb 7c3d 3be9 1bbe 0419 623d 2f07 1fbe
00000330: a743 4e3c 27c7 923e 39f4 f1bd cdcb 42be
00000340: 9e31 2a3e 40e2 31be 1272 63be ba17 f6bd
00000350: c89c 2d3e a380 033e 8f89 1a3e 6b65 473e
00000360: 9419 00be daef 35bd 4fdc 29bd 68e0 c9bd
00000370: b92c a13e c488 9abd 7d98 e83e 1ca2 14be
00000380: 9003 62bd d669 843d e344 0a3e b35f 3fbd
00000390: 3299 b43d 1999 293e ee06 4fbc 3da0 353c
000003a0: 7807 823e 208d 383e bd5d 3dbe d552 2fbd
000003b0: 0e15 e23e b97b 8236 966b 5fbe f914 843e
000003c0: b59a a9be 2422 913e 2a08 253e a97d f9bb
000003d0: 0708 f4bc 9c6a 7a3e 8398 d7bd 5541 2abe
000003e0: 12c1 2bbd 7822 9abe 3a25 9e3e 94e4 e3bd
000003f0: 8c94 233e afcf 85bd d4e3 08be cf1d 28be

base.mlp.fc_h.0.bias f4 [64]
0.0 0.0 0.0 0.0 0.0 0.0 0.0 0.0
0.0 0.0 0.0 0.0 0.0 0.0 0.0 0.0
0.0 0.0 0.0 0.0 0.0 0.0 0.0 0.0
0.0 0.0 0.0 0.0 0.0 0.0 0.0 0.0
0.0 0.0 0.0 0.0 0.0 0.0 0.0 0.0
0.0 0.0 0.0 0.0 0.0 0.0 0.0 0.0
0.0 0.0 0.0 0.0 0.0 0.0 0.0 0.0
0.0 0.0 0.0 0.0 0.0 0.0 0.0 0.0
00000000: 0000 0000 0000 0000 0000 0000 0000 0000
00000010: 0000 0000 0000 0000 0000 0000 0000 0000
00000020: 0000 0000 0000 0000 0000 0000 0000 0000
00000030: 0000 0000 0000 0000 0000 0000 0000 0000
00000040: 0000 0000 0000 0000 0000 0000 0000 0000
00000050: 0000 0000 0000 0000 0000 0000 0000 0000
00000060: 0000 0000 0000 0000 0000 0000 0000 0000
00000070: 0000 0000 0000 0000 0000 0000 0000 0000
00000080: 0000 0000 0000 0000 0000 0000 0000 0000
00000090: 0000 0000 0000 0000 0000 0000 0000 0000
000000a0: 0000 0000 0000 0000 0000 0000 0000 0000
000000b0: 0000 0000 0000 0000 0000 0000 0000 0000
000000c0: 0000 0000 0000 0000 0000 0000 0000 0000
000000d0: 0000 0000 0000 0000 0000 0000 0000 0000
000000e0: 0000 0000 0000 0000 0000 0000 0000 0000
000000f0: 0000 0000 0000 0000 0000 0000 0000 0000

base.mlp.fc_h.2.weight f4 [64]
1.0 1.0 1.0 1.0 1.0 1.0 1.0 1.0
1.0 1.0 1.0 1.0 1.0 1.0 1.0 1.0
1.0 1.0 1.0 1.0 1.0 1.0 1.0 1.0
1.0 1.0 1.0 1.0 1.0 1.0 1.0 1.0
1.0 1.0 1.0 1.0 1.0 1.0 1.0 1.0
1.0 1.0 1.0 1.0 1.0 1.0 1.0 1.0
1.0 1.0 1.0 1.0 1.0 1.0 1.0 1.0
1.0 1.0 1.0 1.0 1.0 1.0 1.0 1.0
00000000: 0000 803f 0000 803f 0000 803f 0000 803f
00000010: 0000 803f 0000 803f 0000 803f 0000 803f
00000020: 0000 803f 0000 803f 0000 803f 0000 803f
00000030: 0000 803f 0000 803f 0000 803f 0000 803f
00000040: 0000 803f 0000 803f 0000 803f 0000 803f
00000050: 0000 803f 0000 803f 0000 803f 0000 803f
00000060: 0000 803f 0000 803f 0000 803f 0000 803f
00000070: 0000 803f 0000 803f 0000 803f 0000 803f
00000080: 0000 803f 0000 803f 0000 803f 0000 803f
00000090: 0000 803f 0000 803f 0000 803f 0000 803f
000000a0: 0000 803f 0000 803f 0000 803f 0000 803f
000000b0: 0000 803f 0000 803f 0000 803f 0000 803f
000000c0: 0000 803f 0000 803f 0000 803f 0000 803f
000000d0: 0000 803f 0000 803f 0000 803f 0000 803f
000000e0: 0000 803f 0000 803f 0000 803f 0000 803f
000000f0: 0000 803f 0000 803f 0000 803f 0000 803f

base.mlp.fc_h.2.bias f4 [64]
0.0 0.0 0.0 0.0 0.0 0.0 0.0 0.0
0.0 0.0 0.0 0.0 0.0 0.0 0.0 0.0
0.0 0.0 0.0 0.0 0.0 0.0 0.0 0.0
0.0 0.0 0.0 0.0 0.0 0.0 0.0 0.0
0.0 0.0 0.0 0.0 0.0 0.0 0.0 0.0
0.0 0.0 0.0 0.0 0.0 0.0 0.0 0.0
0.0 0.0 0.0 0.0 0.0 0.0 0.0 0.0
0.0 0.0 0.0 0.0 0.0 0.0 0.0 0.0
00000000: 0000 0000 0000 0000 0000 0000 0000 0000
00000010: 0000 0000 0000 0000 0000 0000 0000 0000
00000020: 0000 0000 0000 0000 0000 0000 0000 0000
00000030: 0000 0000 0000 0000 0000 0000 0000 0000
00000040: 0000 0000 0000 0000 0000 0000 0000 0000
00000050: 0000 0000 0000 0000 0000 0000 0000 0000
00000060: 0000 0000 0000 0000 0000 0000 0000 0000
00000070: 0000 0000 0000 0000 0000 0000 0000 0000
00000080: 0000 0000 0000 0000 0000 0000 0000 0000
00000090: 0000 0000 0000 0000 0000 0000 0000 0000
000000a0: 0000 0000 0000 0000 0000 0000 0000 0000
000000b0: 0000 0000 0000 0000 0000 0000 0000 0000
000000c0: 0000 0000 0000 0000 0000 0000 0000 0000
000000d0: 0000 0000 0000 0000 0000 0000 0000 0000
000000e0: 0000 0000 0000 0000 0000 0000 0000 0000
000000f0: 0000 0000 0000 0000 0000 0000 0000 0000

base.mlp.fc2.0.0.weight f4 [64, 64]
-0.08697847 -0.14091961 0.007309832 0.13053519 -0.07711928 -0.12899663 -0.25246274 0.12548223
0.29742497 -0.10237394 0.33287424 -0.13283487 0.14793418 -0.18739368 -0.18448345 0.18385488
0.022428045 -0.23386557 -0.026615987 0.08620959 0.16044116 0.12682576 -0.11378297 -0.12358841
-0.01603697 0.32830942 0.03858847 -0.04439349 -0.24722672 0.042188738 0.41131678 -0.07710749
-0.157863 0.115009345 -0.30453628 0.13238142 0.13081399 -0.15023424 0.041355725 0.016806394
0.005132472 0.057519984 -0.12575522 -0.0993116 -0.17401794 -0.09942477 0.4608536 -0.18999656
-0.023849007 -0.044890173 -0.19449022 -0.24773458 -0.18626957 -0.106578134 0.13576491 -0.32751307
0.011816914 0.04135415 0.12493432 -0.33449787 -0.10900576 -0.13039929 0.27146125 -0.30569836
-0.2563571 -0.11185689 0.15931325 -0.12327023 0.045770664 -0.23835163 -0.070955746 -0.013472865
0.17273109 -0.20156252 -0.09561378 0.06356224 0.36545038 0.21909231 -0.09866321 -0.10415346
-0.31167352 0.0720003 -0.040796265 -0.27913854 -0.07402821 0.079331554 -0.33034042 -0.08629082
0.061106328 -0.22189751 -0.24944782 0.16899717 -0.15015803 -0.03466433 -0.017332047 0.049129307
-0.16536132 -0.14327742 0.15716048 -0.20277366 0.04271944 0.27905953 0.30440608 -0.2318392
0.17798828 0.39456773 -0.16989967 -0.2450511 0.0058338563 -0.036852248 -0.048703335 -0.123433836
0.1584785 0.17532331 0.25210604 -0.18623918 0.27319276 -0.0727352 0.008071702 0.30564705
-0.21279496 0.07886722 0.19122794 0.27950466 -0.1796928 0.11263978 0.12022018 -0.110532045
0.10519854 0.24224827 0.09787812 0.34876418 -0.17070197 0.19445403 -0.12115137 -0.048622563
-0.36029422 -0.29333383 -0.27490222 0.014352099 -0.16610311 0.06143353 -0.20315668 0.31772432
0.0152474865 0.033407517 0.1714366 -0.123431385 0.08384001 -0.384542 0.048328783 -0.26581797
-0.21346371 -0.034914806 -0.093283944 -0.26403016 0.03929623 0.08919088 0.23808749 -0.30339143
0.01743935 -0.1470612 0.20168707 -0.33401513 0.19048235 0.01566133 0.3243567 -0.3929241
-0.15115918 -0.012682382 0.061813924 -0.0014311695 0.06822201 -0.11134358 0.04955573 -0.13903734
0.17087057 -0.22296605 0.11236688 0.22508189 -0.16300899 -0.016892912 0.02332435 -0.048852872
0.03811322 0.08018163 -0.12803428 -0.08236378 -0.0751517 0.0627056 0.1539452 -0.09133841
0.08242865 -0.043098085 0.040390033 0.17962179 -0.14070323 0.11254061 0.13412528 0.16485368
0.1001058 -0.043776885 0.11699186 -0.113991894 -0.06575222 0.26976186 -0.056399953 -0.11093596
0.14883345 -0.16604443 -0.23673663 -0.12502511 0.1545089 0.16770351 0.23270604 0.14909033
-0.18730237 -0.013941282 -0.029740889 -0.11877158 0.3611189 -0.13786156 0.45089254 -0.10864585
-0.036158092 0.09536319 0.10180438 -0.0054282867 0.09019551 0.22748223 -0.019854534 0.0050693215
0.14269753 0.08617484 -0.17136294 -0.0894014 0.49744233 -0.11092553 -0.17197964 0.26625428
-0.33512932 0.27241793 0.14290176 -0.006498871 0.018433765 0.17039967 -0.03885638 -0.14074183
-0.019793283 -0.24691771 0.29470658 -0.14300217 0.1165893 0.019630164 -0.14949097 -0.15300128
00000000: c521 b2bd 3b4d 10be 5187 ef3b 04ab 053e
00000010: b7f0 9dbd b117 04be cc42 81be 6a7e 003e
00000020: 1648 983e 6ea9 d1bd 7e6e aa3e dd05 08be
00000030: 0f7c 173e 21e4 3fbe 3be9 3cbe 7444 3c3e
00000040: 05bb b73c 757a 6fbe c509 dabc a78e b03d
00000050: b04a 243e 9dde 013e 0c07 e9bd ec1b fdbd
00000060: f75f 83bc 2c18 a83e f20e 1e3d f3d5 35bd
00000070: 0029 7dbe 19ce 2c3d 1d98 d23e 88ea 9dbd
00000080: d7a6 21be 058a eb3d 2eec 9bbe ff8e 073e
00000090: 1af4 053e 01d7 19be 9f64 293d 90ad 893c
000000a0: 4c2e a83b 139a 6b3d fac5 00be e163 cbbd
000000b0: c231 32be 379f cbbd 01f5 eb3e 758e 42be
000000c0: fe5e c3bc c2de 37bd 7228 47be 22ae 7dbe
000000d0: 73bd 3ebe a345 dabd f505 0b3e cbaf a7be
000000e0: bb9b 413c f862 293d 91dd ff3d 4e43 abbe
000000f0: 693e dfbd 6487 05be f8fc 8a3e 7f84 9cbe
00000100: 3d41 83be 3a15 e5bd 0323 233e 1a75 fcbd
00000110: 057a 3b3d 7312 74be 3f51 91bd 4bbd 5cbc
00000120: 6be0 303e 6866 4ebe 28d1 c3bd eb2c 823d
00000130: 501c bb3e bc59 603e f00f cabd 694e d5bd
00000140: ac93 9fbe e574 933d fc19 27bd 3feb 8ebe
00000150: 1a9c 97bd 9578 a23d 6122 a9be 3eb9 b0bd
00000160: a14a 7a3d 1a39 63be 406f 7fbe 980d 2d3e
00000170: 07c3 19be 2ffc 0dbd f0fb 8dbc d03b 493d
00000180: 7a54 29be 51b7 12be adee 203e e6a3 4fbe
00000190: 94fa 2e3d e4e0 8e3e 1ddb 9b3e 4167 6dbe
000001a0: 8f42 363e c804 ca3e 2efa 2dbe adee 7abe
000001b0: ef29 bf3b 62f2 16bd 267d 47bd e1ca fcbd
000001c0: 3048 223e f487 333e 0b14 813e 7cb5 3ebe
000001d0: ecdf 8b3e 31f6 94bd 2c3f 043c c57d 9c3e
000001e0: ece6 59be 2385 a13d 42d1 433e 3c1b 8f3e
000001f0: 6401 38be afaf e63d ff35 f63d a05e e2bd
00000200: 5572 d73d ee0f 783e 5374 c83d 3891 b23e
00000210: 7fcc 2ebe f51e 473e 361e f8bd 7428 47bd
00000220: 7c78 b8be da2f 96be fcbf 8cbe 1125 6b3c
00000230: ef16 2abe baa1 7b3d 4e08 50be c3ac a23e
00000240: 98d0 793c 52d6 083d 138d 2f3e 98c9 fcbd
00000250: 50b4 ab3d b0e2 c4be 67f4 453d 4b19 88be
00000260: 3b96 5abe d402 0fbd a70b bfbd f62e 87be
00000270: 15f5 203d b5a9 b63d 35cd 733e 1f56 9bbe
00000280: f8dc 8e3c 3697 16be 0e87 4e3e 0804 abbe
00000290: ce0d 433e 314c 803c 1512 a63e 592d c9be
000002a0: 79c9 1abe c4c9 4fbc 9930 7d3d 1496 bbba
000002b0: fbb7 8b3d 1a08 e4bd f3fa 4a3d ce5f 0ebe
000002c0: b2f8 2e3e 3651 64be 9b20 e63d de7b 663e
000002d0: d4eb 26be 0163 8abc b512 bf3c f319 48bd
000002e0: 9c1c 1c3d 4436 a43d 6b1b 03be 57ae a8bd
000002f0: 22e9 99bd cb6b 803d cfa3 1d3e a20f bbbd
00000300: 5ad0 a83d 9e87 30bd 0570 253d c6ee 373e
00000310: 8214 10be b17b e63d 2358 093e 67cf 283e
00000320: 4504 cd3d 644f 33bd 6e99 ef3d 9574 e9bd
00000330: 1aa9 86bd 3a1e 8a3e a303 67bd 6532 e3bd
00000340: cc67 183e 8d07 2abe 166b 72be 9506 00be
00000350: 9537 1e3e 78ba 2b3e 7e4a 6e3e 23ab 183e
00000360: 31cc 3fbe fa69 64bc 2aa3 f3bc 843e f3bd
00000370: 94e4 b83e 952b 0dbe 63db e63e b781 debd
00000380: 821a 14bd c74d c33d d17e d03d c5df b1bb
00000390: 6cb8 b83d 1af1 683e faa5 a2bc 8d1c a63b
000003a0: 4d1f 123e 6f7c b03d c479 2fbe 1518 b7bd
000003b0: c3b0 fe3e ed2c e3bd 6e1b 30be 7b52 883e
000003c0: 1296 abbe 5d7a 8b3e d754 123e 7bf4 d4bb
000003d0: 6802 973c 407d 2e3e de27 1fbd a01e 10be
000003e0: 8625 a2bc ffd7 7cbe c8e3 963e 296f 12be
000003f0: 5fc6 ee3d 70cf a03c 2914 19be 5eac 1cbe

base.mlp.fc2.0.0.bias f4 [64]
0.022093 0.030587677 0.021411581 -0.03990047 0.033783358 -0.029168976 -0.05592818 -0.0034129813
-0.032421432 -0.04195406 -0.03991863 -0.026651828 0.041450948 0.021991786 -0.0029525883 -0.040147394
-7.403316e-05 0.008570675 -0.10896686 -0.012689004 -0.0068041473 0.012786635 -0.008124032 -0.014241219
-0.035977907 -0.004887838 -0.013562646 -0.063791834 -0.053177938 -0.038537044 -0.016597556 -0.037283074
-0.025279503 -0.011633543 -0.0021749334 -0.06029163 0.005408008 0.08444288 0.002863239 0.0065559098
-0.10063004 -0.008694502 -0.033559218 -0.06388071 0.015672555 -0.030472063 -0.05886233 -0.016102258
-0.010247723 0.004428433 -0.007401637 0.018496616 0.005058234 -0.051570117 0.014613326 -0.022586381
-0.034313735 0.022402339 -0.01810687 0.013114201 -0.013498223 0.008649253 -0.0004532662 -0.02027026
00000000: 61fc b43c 0293 fa3c 5767 af3c ad6e 23bd
00000010: 6b60 0a3d c7f3 eebc f314 65bd 53ac 5fbb
00000020: 56cc 04bd 05d8 2bbd b881 23bd ef54 dabc
00000030: 78c8 293d 1e28 b43c 3680 41bb 9871 24bd
00000040: 4042 9bb8 046c 0c3c 042a dfbd 8ae5 4fbc
00000050: 53f5 debb 097f 513c a91a 05bc 0054 69bc
00000060: 925d 13bd 282a a0bb dc35 5ebc 4ba5 82bd
00000070: 1cd1 59bd 05d9 1dbd 99f7 87bc 23b6 18bd
00000080: f616 cfbc 9e9a 3ebc 5489 0ebb 5bf4 76bd
00000090: a935 b13b 63f0 ac3d 2ea5 3b3b f5d2 d63b
000000a0: 1f17 cebd 6273 0ebc 6475 09bd e4d3 82bd
000000b0: bb63 803c 8ca0 f9bc a019 71bd e2e8 83bc
000000c0: 11e6 27bc 631c 913b 6e89 f2bb 3786 973c
000000d0: 8bbf a53b 303b 53bd bb6c 6f3c 1307 b9bc
000000e0: 8f8c 0cbd 1c85 b73c dc54 94bc f2dc 563c
000000f0: a727 5dbc 99b5 0d3c 5ca4 edb9 d10d a6bc

base.mlp.fc2.0.2.weight f4 [64]
1.0551059 1.0296596 1.0845637 0.9979236 1.0048143 0.93767005 1.0234361 1.05969
1.0807346 1.0604094 1.0069659 1.0011362 1.0577992 1.1003662 1.0096569 1.0155965
1.0812134 0.9934066 1.0240554 0.9808968 1.0653857 1.0135568 1.089299 1.0395665
1.0793196 1.0085231 1.1043719 1.0085405 0.9857515 1.0259084 1.0435159 1.0282854
1.021913 1.0368395 0.9908496 1.013478 0.95125866 1.0573455 1.064716 1.0435781
1.0363195 1.0793319 1.03794 0.96809727 1.0464246 1.0457822 1.0708221 1.0309753
0.9886738 1.0058116 1.0624797 1.0919235 1.0845283 1.0725845 1.1204423 1.0621753
0.98771036 1.0495384 1.0086565 1.0630285 0.99469256 1.0688455 1.0707566 1.0210886
00000000: b60d 873f e3cb 833f fcd2 8a3f ec77 7f3f
00000010: c19d 803f 250b 703f f4ff 823f eca3 873f
00000020: 8355 8a3f 7fbb 873f 42e4 803f 3b25 803f
00000030: f765 873f cdd8 8c3f 703c 813f 11ff 813f
00000040: 3365 8a3f e54f 7e3f 3f14 833f 0d1c 7b3f
00000050: 8f5e 883f 3bbc 813f 266e 8b3f 8410 853f
00000060: 2527 8a3f 4917 813f 0f5c 8d3f db17 813f
00000070: 365a 7c3f f750 833f ee91 853f db9e 833f
00000080: 0cce 823f 28b7 843f 52a8 7d3f a6b9 813f
00000090: b085 733f 1957 873f 9d48 883f f893 853f
000000a0: 1ea6 843f 8c27 8a3f 38db 843f 39d5 773f
000000b0: 3ef1 853f 31dc 853f b310 893f 00f7 833f
000000c0: ba19 7d3f 6fbe 803f 56ff 873f 26c4 8b3f
000000d0: d3d1 8a3f 734a 893f a76a 8f3f 5cf5 873f
000000e0: 96da 7c3f 4657 863f a81b 813f 5111 883f
000000f0: 2ca4 7e3f eecf 883f 8d0e 893f 08b3 823f

base.mlp.fc2.0.2.bias f4 [64]
0.03360132 -0.021578917 -0.027917124 -0.020850085 0.04776781 0.024546526 -0.0002911698 0.050978333
-0.01041878 -0.012815648 0.0492887 -0.003815131 0.0027405762 -0.021425184 0.034140274 -0.058636915
0.03491253 0.03900141 -0.021507412 0.01302082 0.03862101 -0.002123264 0.06168277 -0.0018746859
-0.05260326 -0.009568917 -0.00092163763 0.029877974 -0.0093292715 -0.015204314 -4.5441848e-05 0.05242049
-0.0016289896 -0.038514204 -0.00050477113 -0.060955472 0.025179498 -0.040671032 0.012873214 -0.0053021703
-0.043842893 -0.01432419 0.0071624285 -0.05934727 -0.018212067 0.05151953 0.031803552 -0.0060618552
0.017103968 -0.04588028 -0.0015780487 0.011433245 -0.021045439 -0.037809752 -0.011729951 0.0046143974
-0.030416649 -0.013862572 0.023954408 -0.025124997 0.04782097 0.04952596 0.048074465 0.02170112
00000000: 8aa1 093d 45c6 b0bc 74b2 e4bc cccd aabc
00000010: 2ea8 433d cc15 c93c 26a8 98b9 a8ce 503d
00000020: 88b3 2abc b9f8 51bc f3e2 493d 4707 7abb
00000030: 3d9b 333b de83 afbc acd6 0b3d 432d 70bd
00000040: 7100 0f3d f1bf 1f3d 5030 b0bc 4755 553c
00000050: 1031 1e3d 7526 0bbb 12a7 7c3d 05b8 f5ba
00000060: 8476 57bd f2c6 1cbc 0e9a 71ba a7c2 f43c
00000070: cdd9 18bc 841b 79bc d098 3eb8 deb6 563d
00000080: d283 d5ba 12c1 1dbd 9e52 04ba 72ac 79bd
00000090: 3c45 ce3c ab96 26bd 2cea 523c d4bd adbb
000000a0: 9b94 33bd 02b0 6abc ceb2 ea3b 1f16 73bd
000000b0: 7931 95bc 2506 533d 7144 023d 87a2 c6bb
000000c0: 9f1d 8c3c f6ec 3bbd 87d6 ceba 8152 3b3c
000000d0: 7c67 acbc 66de 1abd fb2e 40bc 5f34 973b
000000e0: 562c f9bc d71f 63bc 093c c43c f0d2 cdbc
000000f0: ecdf 433d bcdb 4a3d bbe9 443d 8cc6 b13c

act.action_out.fc_mean.weight f4 [5, 64]
0.062455237 -0.045068633 0.048379842 0.035866924 0.00070775516 -0.02049755 -0.009718511 -0.05999461
0.050117303 -0.027349828 -0.032431573 -0.014103273 -0.07140359 0.07240296 -0.0008393575 0.021760546
-0.021349035 -0.012785305 0.04376861 -0.010647146 -0.030320423 -0.012624703 -0.008666289 -0.060061
-0.010032871 -0.0535093 0.09906744 -0.00396037 0.0057362798 -0.043066148 0.020179883 -0.010487242
0.01766001 0.0018169624 0.03988951 0.010678072 0.0014685547 0.029604398 -0.0068020024 -0.041238148
0.03421131 -0.06753603 -0.017239306 0.024226056 -0.053886924 0.017095214 0.024856579 0.06623891
0.01764602 0.009277093 0.04148247 0.039344337 -0.06677664 -0.041609354 0.094285555 -0.0129552
-0.011488531 0.044679794 -0.032134317 -0.06211455 -0.022727769 -0.013096877 0.07227294 0.0012854737
-0.024623306 0.009943988 -0.070111334 0.023997337 -0.014836308 0.019726891 0.059250854 0.0038320653
-0.006012283 0.029991541 0.021306464 0.0014853103 -0.0128460545 0.00047578214 0.002013743 0.039895065
-0.054992635 -0.0098359 0.029844068 0.009538394 -0.037562426 -0.0043950644 -0.043155234 0.031408068
0.033898696 0.010374117 0.010095288 -0.041837048 -0.012679471 0.03821967 -0.010691024 -0.012345405
0.009213554 0.032914877 0.02249996 0.026421621 -0.0014773976 0.03934489 -0.08047019 0.048899435
0.046882506 0.07147875 0.016396856 0.011614499 0.058532104 -0.021758564 -0.058780644 -0.002277405
0.012861991 0.022122394 -0.06924819 -0.075570226 -0.0010359501 0.026307395 0.019894568 0.008077213
0.03556484 -6.039902e-06 -0.026796699 0.063010894 -0.016627653 -0.08576736 -0.029747337 -0.032734547
0.06718473 -0.04005732 -0.046243828 -0.02012743 -0.045237772 -0.0035625128 0.0155964615 0.07071097
0.004365671 -0.046108212 0.04667152 -0.050461978 -0.04791164 0.011426787 0.06402314 -0.024467874
-0.025054934 -0.020051336 0.0071973917 -0.041431163 0.018521441 -0.012134853 0.07164425 0.034397516
-0.08044736 0.00042810233 0.052472144 0.0008132834 0.02249436 -0.024361664 0.049425475 0.044369873
0.041719798 -0.043225598 -0.029042237 0.028959785 0.028549291 0.045379024 -0.069031015 -0.019766774
-0.013968556 -0.016489288 0.068208896 -0.012827809 -0.021479696 0.06398282 0.03701177 -0.016842257
-0.014676098 -0.04365667 -0.0016196648 -0.06864236 0.0070943427 0.04041462 0.047959197 -0.0061415276
0.02821467 0.013477713 -0.016930927 0.015457695 0.0456821 -0.00869955 -0.015445844 -0.051436078
0.020744586 0.012188481 0.010324056 0.012431802 -0.029801218 0.0085755475 0.017500669 -0.03992519
0.08794153 -0.057815015 0.010233243 -0.0031743967 -0.031822015 -0.0919146 0.008545347 0.0069886963
-0.043274056 0.001964344 0.017042521 -0.007169627 0.07755362 -0.05366781 -0.06462516 -0.00572819
-0.018041845 -0.0050728437 0.07313585 0.036275677 -0.033234257 0.00592891 0.06877642 -0.03859071
0.05103746 -0.019342916 0.00972693 0.014488427 -0.009499899 -0.054401908 -0.019258728 0.023113254
0.02071678 0.011455371 -0.00119827 -0.0025387257 -0.009957502 0.020706907 0.0640677 -0.008607254
0.035891812 -0.0037276007 0.0006933571 -0.007898218 -0.013952009 -0.042552806 0.058064174 -0.026753135
0.0015511484 -0.057212163 0.025900997 -0.02793106 0.0033162478 0.009834594 -0.011076838 0.018270385
00000000: 10d1 7f3d e399 38bd f129 463d 32e9 123d
00000010: a588 393a 7aea a7bc 643a 1fbc e8bc 75bd
00000020: cd47 4d3d bf0c e0bc f8d6 04bd 6a11 67bc
00000030: 0c3c 92bd 0148 943d 5408 5cba 2c43 b23c
00000040: 2ce4 aebc 7579 51bc b746 333d 5e71 2ebc
00000050: 8962 f8bc d8d7 4ebc 0dfd 0dbc 8602 76bd
00000060: e960 24bc 912c 5bbd dfe3 ca3d fec5 81bb
00000070: 67f7 bb3b 2166 30bd 4850 a53c aed2 2bbc
00000080: baab 903c 2427 ee3a 2f63 233d 15f3 2e3c
00000090: 857c c03a ec84 f23c 55e3 debb 55e9 28bd
000000a0: 2921 0c3d 5550 8abd 7239 8dbc b975 c63c
000000b0: 89b8 5cbd 430b 8c3c 06a0 cb3c 44a8 873d
000000c0: 638e 903c f3fe 173c 86e9 293d 8727 213d
000000d0: 31c2 88bd 926e 2abd c918 c13d 0c42 54bc
000000e0: 643a 3cbc 2902 373d 469f 03bd d46b 7ebd
000000f0: 962f babc 4994 56bc d603 943d 577d a83a
00000100: d1b6 c9bc 1cec 223c 8896 8fbd 1096 c43c
00000110: fc13 73bc 4a9a a13c 06b1 723d 6323 7b3b
00000120: af02 c5bb d2b0 f53c e58a ae3c beae c23a
00000130: 4278 52bc 6672 f939 00f9 033b 0269 233d
00000140: f53f 61bd c126 21bc 8c7b f43c ed46 1c3c
00000150: 0fdb 19bd 7904 90bb 8bc3 30bd bfa5 003d
00000160: 5cd9 0a3d 33f8 293c b566 253c 535d 2bbd
00000170: 8ebd 4fbc 3b8c 1c3d 6829 2fbc 6244 4abc
00000180: 72f4 163c c0d1 063d d651 b83c 2872 d83c
00000190: 3da5 c1ba 1b28 213d 8ecd a4bd c64a 483d
000001a0: df07 403d 7363 923d b352 863c bd4a 3e3c
000001b0: 5cbf 6f3d 043f b2bc f9c3 70bd 8440 15bb
000001c0: 1abb 523c 063a b53c ffd1 8dbd 90c4 9abd
000001d0: b8c8 87ba 9b82 d73c eff9 a23c 4956 043c
000001e0: 70ac 113d 5daa cab6 c084 dbbc db0b 813d
000001f0: b736 88bc cca6 afbd b0b0 f3bc a914 06bd
00000200: 2698 893d 2513 24bd 2b6a 3dbd 48e2 a4bc
00000210: 3e4b 39bd 0c79 69bb 4d88 7f3c ead0 903d
00000220: e70d 8f3b f7db 3cbd a32a 3f3d 38b1 4ebd
00000230: ff3e 44bd 6b37 3b3c 901e 833d da70 c8bc
00000240: 0140 cdbc b342 a4bc 19d8 eb3b b9b3 29bd
00000250: 47ba 973c 43d1 46bc 38ba 923d 69e4 0c3d
00000260: 96c1 a4bd ec72 e039 08ed 563d 8632 553a
00000270: 1846 b83c 1d92 c7bc 5e72 4a3d 2fbd 353d
00000280: 61e2 2a3d 530d 31bd fce9 edbc 123d ed3c
00000290: 34e0 e93c 5bdf 393d 2260 8dbd eeed a1bc
000002a0: 5fdc 64bc 8b14 87bc 1bb1 8b3d bb2b 52bc
000002b0: 30f6 afbc 6d09 833d a799 173d c6f8 89bc
000002c0: 0474 70bc 56d1 32bd ef4a d4ba 5e94 8cbd
000002d0: a977 e83b cd89 253d dd70 443d de3e c9bb
000002e0: 7422 e73c a0d1 5c3c bab2 8abc 4642 7d3c
000002f0: 271d 3b3d 8f88 0ebc 9110 7dbc a3ae 52bd
00000300: 8df0 a93c 32b2 473c 3b26 293c c2ae 4b3c
00000310: af21 f4bc 7480 0c3c 905d 8f3c 9988 23bd
00000320: b01a b43d 70cf 6cbd 55a9 273c 8a09 50bb
00000330: cd57 02bd b93d bcbd c801 0c3c 6f01 e53b
00000340: 2340 31bd 39bc 003b c29c 8b3c 31ef eabb
00000350: 6fd4 9e3d c7d2 5bbd 325a 84bd 8ab3 bbbb
00000360: 7ecc 93bc 193a a6bb 40c8 953d ce95 143d
00000370: a520 08bd 4d47 c23b a7da 8c3d 4b11 1ebd
00000380: a80c 513d 0975 9ebc b45d 1f3c de60 6d3c
00000390: 77a5 1bbc 89d4 5ebd 7bc4 9dbc 0258 bd3c
000003a0: 3db6 a93c 4faf 3b3c 450f 9dba c060 26bb
000003b0: ca24 23bc 88a1 a93c ed35 833d 7105 0dbc
000003c0: 4b03 133d c34a 74bb 68c2 353a 8767 01bc
000003d0: f896 64bc da4b 2ebd b3d4 6d3d 6429 dbbc
000003e0: e74f cb3a 4d57 6abd 542e d43c aecf e4bc
000003f0: 6855 593b 4721 213c a07b 35bc c6ab 953c

act.action_out.fc_mean.bias f4 [5]
-0.013735963 -0.05186171 0.040947344 0.009261652 0.02187907
00000000: ce0c 61bc f26c 54bd 67b8 273d 2fbe 173c
00000010: bc3b b33c

act.action_out.logstd._bias f4 [5, 1]
-0.05989888 -0.0013150048 0.014328413 -0.033957466 -0.063571215
00000000: 8758 75bd 3d5c acba b8c1 6a3c fc16 0bbd
00000010: a031 82bd
